node {
  name: "global_step/Initializer/zeros"
  op: "Const"
  attr {
    key: "_class"
    value {
      list {
        s: "loc:@global_step"
      }
    }
  }
  attr {
    key: "_output_shapes"
    value {
      list {
        shape {
        }
      }
    }
  }
  attr {
    key: "dtype"
    value {
      type: DT_INT64
    }
  }
  attr {
    key: "value"
    value {
      tensor {
        dtype: DT_INT64
        tensor_shape {
        }
        int64_val: 0
      }
    }
  }
}
node {
  name: "global_step"
  op: "VariableV2"
  device: "/device:CPU:0"
  attr {
    key: "_class"
    value {
      list {
        s: "loc:@global_step"
      }
    }
  }
  attr {
    key: "_output_shapes"
    value {
      list {
        shape {
        }
      }
    }
  }
  attr {
    key: "container"
    value {
      s: ""
    }
  }
  attr {
    key: "dtype"
    value {
      type: DT_INT64
    }
  }
  attr {
    key: "shape"
    value {
      shape {
      }
    }
  }
  attr {
    key: "shared_name"
    value {
      s: ""
    }
  }
}
node {
  name: "global_step/Assign"
  op: "Assign"
  input: "global_step"
  input: "global_step/Initializer/zeros"
  device: "/device:CPU:0"
  attr {
    key: "T"
    value {
      type: DT_INT64
    }
  }
  attr {
    key: "_class"
    value {
      list {
        s: "loc:@global_step"
      }
    }
  }
  attr {
    key: "_output_shapes"
    value {
      list {
        shape {
        }
      }
    }
  }
  attr {
    key: "use_locking"
    value {
      b: true
    }
  }
  attr {
    key: "validate_shape"
    value {
      b: true
    }
  }
}
node {
  name: "global_step/read"
  op: "Identity"
  input: "global_step"
  device: "/device:CPU:0"
  attr {
    key: "T"
    value {
      type: DT_INT64
    }
  }
  attr {
    key: "_class"
    value {
      list {
        s: "loc:@global_step"
      }
    }
  }
  attr {
    key: "_output_shapes"
    value {
      list {
        shape {
        }
      }
    }
  }
}
node {
  name: "synthetic_images/shape"
  op: "Const"
  device: "/device:CPU:0"
  attr {
    key: "_output_shapes"
    value {
      list {
        shape {
          dim {
            size: 4
          }
        }
      }
    }
  }
  attr {
    key: "dtype"
    value {
      type: DT_INT32
    }
  }
  attr {
    key: "value"
    value {
      tensor {
        dtype: DT_INT32
        tensor_shape {
          dim {
            size: 4
          }
        }
        tensor_content: "@\000\000\000\340\000\000\000\340\000\000\000\003\000\000\000"
      }
    }
  }
}
node {
  name: "synthetic_images/mean"
  op: "Const"
  device: "/device:CPU:0"
  attr {
    key: "_output_shapes"
    value {
      list {
        shape {
        }
      }
    }
  }
  attr {
    key: "dtype"
    value {
      type: DT_FLOAT
    }
  }
  attr {
    key: "value"
    value {
      tensor {
        dtype: DT_FLOAT
        tensor_shape {
        }
        float_val: 0.0
      }
    }
  }
}
node {
  name: "synthetic_images/stddev"
  op: "Const"
  device: "/device:CPU:0"
  attr {
    key: "_output_shapes"
    value {
      list {
        shape {
        }
      }
    }
  }
  attr {
    key: "dtype"
    value {
      type: DT_FLOAT
    }
  }
  attr {
    key: "value"
    value {
      tensor {
        dtype: DT_FLOAT
        tensor_shape {
        }
        float_val: 0.10000000149
      }
    }
  }
}
node {
  name: "synthetic_images/TruncatedNormal"
  op: "TruncatedNormal"
  input: "synthetic_images/shape"
  device: "/device:CPU:0"
  attr {
    key: "T"
    value {
      type: DT_INT32
    }
  }
  attr {
    key: "_output_shapes"
    value {
      list {
        shape {
          dim {
            size: 64
          }
          dim {
            size: 224
          }
          dim {
            size: 224
          }
          dim {
            size: 3
          }
        }
      }
    }
  }
  attr {
    key: "dtype"
    value {
      type: DT_FLOAT
    }
  }
  attr {
    key: "seed"
    value {
      i: 1234
    }
  }
  attr {
    key: "seed2"
    value {
      i: 7
    }
  }
}
node {
  name: "synthetic_images/mul"
  op: "Mul"
  input: "synthetic_images/TruncatedNormal"
  input: "synthetic_images/stddev"
  device: "/device:CPU:0"
  attr {
    key: "T"
    value {
      type: DT_FLOAT
    }
  }
  attr {
    key: "_output_shapes"
    value {
      list {
        shape {
          dim {
            size: 64
          }
          dim {
            size: 224
          }
          dim {
            size: 224
          }
          dim {
            size: 3
          }
        }
      }
    }
  }
}
node {
  name: "synthetic_images"
  op: "Add"
  input: "synthetic_images/mul"
  input: "synthetic_images/mean"
  device: "/device:CPU:0"
  attr {
    key: "T"
    value {
      type: DT_FLOAT
    }
  }
  attr {
    key: "_output_shapes"
    value {
      list {
        shape {
          dim {
            size: 64
          }
          dim {
            size: 224
          }
          dim {
            size: 224
          }
          dim {
            size: 3
          }
        }
      }
    }
  }
}
node {
  name: "synthetic_labels/shape"
  op: "Const"
  device: "/device:CPU:0"
  attr {
    key: "_output_shapes"
    value {
      list {
        shape {
          dim {
            size: 1
          }
        }
      }
    }
  }
  attr {
    key: "dtype"
    value {
      type: DT_INT32
    }
  }
  attr {
    key: "value"
    value {
      tensor {
        dtype: DT_INT32
        tensor_shape {
          dim {
            size: 1
          }
        }
        int_val: 64
      }
    }
  }
}
node {
  name: "synthetic_labels/min"
  op: "Const"
  device: "/device:CPU:0"
  attr {
    key: "_output_shapes"
    value {
      list {
        shape {
        }
      }
    }
  }
  attr {
    key: "dtype"
    value {
      type: DT_INT32
    }
  }
  attr {
    key: "value"
    value {
      tensor {
        dtype: DT_INT32
        tensor_shape {
        }
        int_val: 0
      }
    }
  }
}
node {
  name: "synthetic_labels/max"
  op: "Const"
  device: "/device:CPU:0"
  attr {
    key: "_output_shapes"
    value {
      list {
        shape {
        }
      }
    }
  }
  attr {
    key: "dtype"
    value {
      type: DT_INT32
    }
  }
  attr {
    key: "value"
    value {
      tensor {
        dtype: DT_INT32
        tensor_shape {
        }
        int_val: 1000
      }
    }
  }
}
node {
  name: "synthetic_labels"
  op: "RandomUniformInt"
  input: "synthetic_labels/shape"
  input: "synthetic_labels/min"
  input: "synthetic_labels/max"
  device: "/device:CPU:0"
  attr {
    key: "T"
    value {
      type: DT_INT32
    }
  }
  attr {
    key: "Tout"
    value {
      type: DT_INT32
    }
  }
  attr {
    key: "_output_shapes"
    value {
      list {
        shape {
          dim {
            size: 64
          }
        }
      }
    }
  }
  attr {
    key: "seed"
    value {
      i: 1234
    }
  }
  attr {
    key: "seed2"
    value {
      i: 13
    }
  }
}
node {
  name: "images"
  op: "VariableV2"
  device: "/device:CPU:0"
  attr {
    key: "_output_shapes"
    value {
      list {
        shape {
          dim {
            size: 64
          }
          dim {
            size: 224
          }
          dim {
            size: 224
          }
          dim {
            size: 3
          }
        }
      }
    }
  }
  attr {
    key: "container"
    value {
      s: ""
    }
  }
  attr {
    key: "dtype"
    value {
      type: DT_FLOAT
    }
  }
  attr {
    key: "shape"
    value {
      shape {
        dim {
          size: 64
        }
        dim {
          size: 224
        }
        dim {
          size: 224
        }
        dim {
          size: 3
        }
      }
    }
  }
  attr {
    key: "shared_name"
    value {
      s: ""
    }
  }
}
node {
  name: "images/Assign"
  op: "Assign"
  input: "images"
  input: "synthetic_images"
  device: "/device:CPU:0"
  attr {
    key: "T"
    value {
      type: DT_FLOAT
    }
  }
  attr {
    key: "_class"
    value {
      list {
        s: "loc:@images"
      }
    }
  }
  attr {
    key: "_output_shapes"
    value {
      list {
        shape {
          dim {
            size: 64
          }
          dim {
            size: 224
          }
          dim {
            size: 224
          }
          dim {
            size: 3
          }
        }
      }
    }
  }
  attr {
    key: "use_locking"
    value {
      b: true
    }
  }
  attr {
    key: "validate_shape"
    value {
      b: true
    }
  }
}
node {
  name: "images/read"
  op: "Identity"
  input: "images"
  device: "/device:CPU:0"
  attr {
    key: "T"
    value {
      type: DT_FLOAT
    }
  }
  attr {
    key: "_class"
    value {
      list {
        s: "loc:@images"
      }
    }
  }
  attr {
    key: "_output_shapes"
    value {
      list {
        shape {
          dim {
            size: 64
          }
          dim {
            size: 224
          }
          dim {
            size: 224
          }
          dim {
            size: 3
          }
        }
      }
    }
  }
}
node {
  name: "labels"
  op: "VariableV2"
  device: "/device:CPU:0"
  attr {
    key: "_output_shapes"
    value {
      list {
        shape {
          dim {
            size: 64
          }
        }
      }
    }
  }
  attr {
    key: "container"
    value {
      s: ""
    }
  }
  attr {
    key: "dtype"
    value {
      type: DT_INT32
    }
  }
  attr {
    key: "shape"
    value {
      shape {
        dim {
          size: 64
        }
      }
    }
  }
  attr {
    key: "shared_name"
    value {
      s: ""
    }
  }
}
node {
  name: "labels/Assign"
  op: "Assign"
  input: "labels"
  input: "synthetic_labels"
  device: "/device:CPU:0"
  attr {
    key: "T"
    value {
      type: DT_INT32
    }
  }
  attr {
    key: "_class"
    value {
      list {
        s: "loc:@labels"
      }
    }
  }
  attr {
    key: "_output_shapes"
    value {
      list {
        shape {
          dim {
            size: 64
          }
        }
      }
    }
  }
  attr {
    key: "use_locking"
    value {
      b: true
    }
  }
  attr {
    key: "validate_shape"
    value {
      b: true
    }
  }
}
node {
  name: "labels/read"
  op: "Identity"
  input: "labels"
  device: "/device:CPU:0"
  attr {
    key: "T"
    value {
      type: DT_INT32
    }
  }
  attr {
    key: "_class"
    value {
      list {
        s: "loc:@labels"
      }
    }
  }
  attr {
    key: "_output_shapes"
    value {
      list {
        shape {
          dim {
            size: 64
          }
        }
      }
    }
  }
}
node {
  name: "StagingArea_root/NoOp"
  op: "NoOp"
  device: "/device:CPU:0"
}
node {
  name: "group_deps"
  op: "NoOp"
}
node {
  name: "v0/tower_0/synthetic_images/shape"
  op: "Const"
  device: "/device:GPU:0"
  attr {
    key: "_output_shapes"
    value {
      list {
        shape {
          dim {
            size: 4
          }
        }
      }
    }
  }
  attr {
    key: "dtype"
    value {
      type: DT_INT32
    }
  }
  attr {
    key: "value"
    value {
      tensor {
        dtype: DT_INT32
        tensor_shape {
          dim {
            size: 4
          }
        }
        tensor_content: "@\000\000\000\340\000\000\000\340\000\000\000\003\000\000\000"
      }
    }
  }
}
node {
  name: "v0/tower_0/synthetic_images/mean"
  op: "Const"
  device: "/device:GPU:0"
  attr {
    key: "_output_shapes"
    value {
      list {
        shape {
        }
      }
    }
  }
  attr {
    key: "dtype"
    value {
      type: DT_FLOAT
    }
  }
  attr {
    key: "value"
    value {
      tensor {
        dtype: DT_FLOAT
        tensor_shape {
        }
        float_val: 127.0
      }
    }
  }
}
node {
  name: "v0/tower_0/synthetic_images/stddev"
  op: "Const"
  device: "/device:GPU:0"
  attr {
    key: "_output_shapes"
    value {
      list {
        shape {
        }
      }
    }
  }
  attr {
    key: "dtype"
    value {
      type: DT_FLOAT
    }
  }
  attr {
    key: "value"
    value {
      tensor {
        dtype: DT_FLOAT
        tensor_shape {
        }
        float_val: 60.0
      }
    }
  }
}
node {
  name: "v0/tower_0/synthetic_images/TruncatedNormal"
  op: "TruncatedNormal"
  input: "v0/tower_0/synthetic_images/shape"
  device: "/device:GPU:0"
  attr {
    key: "T"
    value {
      type: DT_INT32
    }
  }
  attr {
    key: "_output_shapes"
    value {
      list {
        shape {
          dim {
            size: 64
          }
          dim {
            size: 224
          }
          dim {
            size: 224
          }
          dim {
            size: 3
          }
        }
      }
    }
  }
  attr {
    key: "dtype"
    value {
      type: DT_FLOAT
    }
  }
  attr {
    key: "seed"
    value {
      i: 1234
    }
  }
  attr {
    key: "seed2"
    value {
      i: 25
    }
  }
}
node {
  name: "v0/tower_0/synthetic_images/mul"
  op: "Mul"
  input: "v0/tower_0/synthetic_images/TruncatedNormal"
  input: "v0/tower_0/synthetic_images/stddev"
  device: "/device:GPU:0"
  attr {
    key: "T"
    value {
      type: DT_FLOAT
    }
  }
  attr {
    key: "_output_shapes"
    value {
      list {
        shape {
          dim {
            size: 64
          }
          dim {
            size: 224
          }
          dim {
            size: 224
          }
          dim {
            size: 3
          }
        }
      }
    }
  }
}
node {
  name: "v0/tower_0/synthetic_images"
  op: "Add"
  input: "v0/tower_0/synthetic_images/mul"
  input: "v0/tower_0/synthetic_images/mean"
  device: "/device:GPU:0"
  attr {
    key: "T"
    value {
      type: DT_FLOAT
    }
  }
  attr {
    key: "_output_shapes"
    value {
      list {
        shape {
          dim {
            size: 64
          }
          dim {
            size: 224
          }
          dim {
            size: 224
          }
          dim {
            size: 3
          }
        }
      }
    }
  }
}
node {
  name: "v0/tower_0/gpu_cached_images"
  op: "VariableV2"
  device: "/device:GPU:0"
  attr {
    key: "_output_shapes"
    value {
      list {
        shape {
          dim {
            size: 64
          }
          dim {
            size: 224
          }
          dim {
            size: 224
          }
          dim {
            size: 3
          }
        }
      }
    }
  }
  attr {
    key: "container"
    value {
      s: ""
    }
  }
  attr {
    key: "dtype"
    value {
      type: DT_FLOAT
    }
  }
  attr {
    key: "shape"
    value {
      shape {
        dim {
          size: 64
        }
        dim {
          size: 224
        }
        dim {
          size: 224
        }
        dim {
          size: 3
        }
      }
    }
  }
  attr {
    key: "shared_name"
    value {
      s: ""
    }
  }
}
node {
  name: "v0/tower_0/gpu_cached_images/Assign"
  op: "Assign"
  input: "v0/tower_0/gpu_cached_images"
  input: "v0/tower_0/synthetic_images"
  device: "/device:GPU:0"
  attr {
    key: "T"
    value {
      type: DT_FLOAT
    }
  }
  attr {
    key: "_class"
    value {
      list {
        s: "loc:@v0/tower_0/gpu_cached_images"
      }
    }
  }
  attr {
    key: "_output_shapes"
    value {
      list {
        shape {
          dim {
            size: 64
          }
          dim {
            size: 224
          }
          dim {
            size: 224
          }
          dim {
            size: 3
          }
        }
      }
    }
  }
  attr {
    key: "use_locking"
    value {
      b: true
    }
  }
  attr {
    key: "validate_shape"
    value {
      b: true
    }
  }
}
node {
  name: "v0/tower_0/gpu_cached_images/read"
  op: "Identity"
  input: "v0/tower_0/gpu_cached_images"
  device: "/device:GPU:0"
  attr {
    key: "T"
    value {
      type: DT_FLOAT
    }
  }
  attr {
    key: "_class"
    value {
      list {
        s: "loc:@v0/tower_0/gpu_cached_images"
      }
    }
  }
  attr {
    key: "_output_shapes"
    value {
      list {
        shape {
          dim {
            size: 64
          }
          dim {
            size: 224
          }
          dim {
            size: 224
          }
          dim {
            size: 3
          }
        }
      }
    }
  }
}
node {
  name: "v0/tower_0/synthetic_labels/shape"
  op: "Const"
  device: "/device:GPU:0"
  attr {
    key: "_output_shapes"
    value {
      list {
        shape {
          dim {
            size: 1
          }
        }
      }
    }
  }
  attr {
    key: "dtype"
    value {
      type: DT_INT32
    }
  }
  attr {
    key: "value"
    value {
      tensor {
        dtype: DT_INT32
        tensor_shape {
          dim {
            size: 1
          }
        }
        int_val: 64
      }
    }
  }
}
node {
  name: "v0/tower_0/synthetic_labels/min"
  op: "Const"
  device: "/device:GPU:0"
  attr {
    key: "_output_shapes"
    value {
      list {
        shape {
        }
      }
    }
  }
  attr {
    key: "dtype"
    value {
      type: DT_INT32
    }
  }
  attr {
    key: "value"
    value {
      tensor {
        dtype: DT_INT32
        tensor_shape {
        }
        int_val: 0
      }
    }
  }
}
node {
  name: "v0/tower_0/synthetic_labels/max"
  op: "Const"
  device: "/device:GPU:0"
  attr {
    key: "_output_shapes"
    value {
      list {
        shape {
        }
      }
    }
  }
  attr {
    key: "dtype"
    value {
      type: DT_INT32
    }
  }
  attr {
    key: "value"
    value {
      tensor {
        dtype: DT_INT32
        tensor_shape {
        }
        int_val: 1000
      }
    }
  }
}
node {
  name: "v0/tower_0/synthetic_labels"
  op: "RandomUniformInt"
  input: "v0/tower_0/synthetic_labels/shape"
  input: "v0/tower_0/synthetic_labels/min"
  input: "v0/tower_0/synthetic_labels/max"
  device: "/device:GPU:0"
  attr {
    key: "T"
    value {
      type: DT_INT32
    }
  }
  attr {
    key: "Tout"
    value {
      type: DT_INT32
    }
  }
  attr {
    key: "_output_shapes"
    value {
      list {
        shape {
          dim {
            size: 64
          }
        }
      }
    }
  }
  attr {
    key: "seed"
    value {
      i: 1234
    }
  }
  attr {
    key: "seed2"
    value {
      i: 34
    }
  }
}
node {
  name: "v0/tower_0/transpose/perm"
  op: "Const"
  device: "/device:GPU:0"
  attr {
    key: "_output_shapes"
    value {
      list {
        shape {
          dim {
            size: 4
          }
        }
      }
    }
  }
  attr {
    key: "dtype"
    value {
      type: DT_INT32
    }
  }
  attr {
    key: "value"
    value {
      tensor {
        dtype: DT_INT32
        tensor_shape {
          dim {
            size: 4
          }
        }
        tensor_content: "\000\000\000\000\003\000\000\000\001\000\000\000\002\000\000\000"
      }
    }
  }
}
node {
  name: "v0/tower_0/transpose"
  op: "Transpose"
  input: "v0/tower_0/gpu_cached_images/read"
  input: "v0/tower_0/transpose/perm"
  device: "/device:GPU:0"
  attr {
    key: "T"
    value {
      type: DT_FLOAT
    }
  }
  attr {
    key: "Tperm"
    value {
      type: DT_INT32
    }
  }
  attr {
    key: "_output_shapes"
    value {
      list {
        shape {
          dim {
            size: 64
          }
          dim {
            size: 3
          }
          dim {
            size: 224
          }
          dim {
            size: 224
          }
        }
      }
    }
  }
}
node {
  name: "v0/tower_0/cg/conv0/Pad/paddings"
  op: "Const"
  device: "/device:GPU:0"
  attr {
    key: "_output_shapes"
    value {
      list {
        shape {
          dim {
            size: 4
          }
          dim {
            size: 2
          }
        }
      }
    }
  }
  attr {
    key: "dtype"
    value {
      type: DT_INT32
    }
  }
  attr {
    key: "value"
    value {
      tensor {
        dtype: DT_INT32
        tensor_shape {
          dim {
            size: 4
          }
          dim {
            size: 2
          }
        }
        tensor_content: "…"
      }
    }
  }
}
node {
  name: "v0/tower_0/cg/conv0/Pad"
  op: "Pad"
  input: "v0/tower_0/transpose"
  input: "v0/tower_0/cg/conv0/Pad/paddings"
  device: "/device:GPU:0"
  attr {
    key: "T"
    value {
      type: DT_FLOAT
    }
  }
  attr {
    key: "Tpaddings"
    value {
      type: DT_INT32
    }
  }
  attr {
    key: "_output_shapes"
    value {
      list {
        shape {
          dim {
            size: 64
          }
          dim {
            size: 3
          }
          dim {
            size: 230
          }
          dim {
            size: 230
          }
        }
      }
    }
  }
}
node {
  name: "v0/cg/conv0/conv2d/kernel/Initializer/random_uniform/shape"
  op: "Const"
  attr {
    key: "_class"
    value {
      list {
        s: "loc:@v0/cg/conv0/conv2d/kernel"
      }
    }
  }
  attr {
    key: "_output_shapes"
    value {
      list {
        shape {
          dim {
            size: 4
          }
        }
      }
    }
  }
  attr {
    key: "dtype"
    value {
      type: DT_INT32
    }
  }
  attr {
    key: "value"
    value {
      tensor {
        dtype: DT_INT32
        tensor_shape {
          dim {
            size: 4
          }
        }
        tensor_content: "\007\000\000\000\007\000\000\000\003\000\000\000@\000\000\000"
      }
    }
  }
}
node {
  name: "v0/cg/conv0/conv2d/kernel/Initializer/random_uniform/min"
  op: "Const"
  attr {
    key: "_class"
    value {
      list {
        s: "loc:@v0/cg/conv0/conv2d/kernel"
      }
    }
  }
  attr {
    key: "_output_shapes"
    value {
      list {
        shape {
        }
      }
    }
  }
  attr {
    key: "dtype"
    value {
      type: DT_FLOAT
    }
  }
  attr {
    key: "value"
    value {
      tensor {
        dtype: DT_FLOAT
        tensor_shape {
        }
        float_val: -0.0427503995597
      }
    }
  }
}
node {
  name: "v0/cg/conv0/conv2d/kernel/Initializer/random_uniform/max"
  op: "Const"
  attr {
    key: "_class"
    value {
      list {
        s: "loc:@v0/cg/conv0/conv2d/kernel"
      }
    }
  }
  attr {
    key: "_output_shapes"
    value {
      list {
        shape {
        }
      }
    }
  }
  attr {
    key: "dtype"
    value {
      type: DT_FLOAT
    }
  }
  attr {
    key: "value"
    value {
      tensor {
        dtype: DT_FLOAT
        tensor_shape {
        }
        float_val: 0.0427503995597
      }
    }
  }
}
node {
  name: "v0/cg/conv0/conv2d/kernel/Initializer/random_uniform/RandomUniform"
  op: "RandomUniform"
  input: "v0/cg/conv0/conv2d/kernel/Initializer/random_uniform/shape"
  attr {
    key: "T"
    value {
      type: DT_INT32
    }
  }
  attr {
    key: "_class"
    value {
      list {
        s: "loc:@v0/cg/conv0/conv2d/kernel"
      }
    }
  }
  attr {
    key: "_output_shapes"
    value {
      list {
        shape {
          dim {
            size: 7
          }
          dim {
            size: 7
          }
          dim {
            size: 3
          }
          dim {
            size: 64
          }
        }
      }
    }
  }
  attr {
    key: "dtype"
    value {
      type: DT_FLOAT
    }
  }
  attr {
    key: "seed"
    value {
      i: 1234
    }
  }
  attr {
    key: "seed2"
    value {
      i: 42
    }
  }
}
node {
  name: "v0/cg/conv0/conv2d/kernel/Initializer/random_uniform/sub"
  op: "Sub"
  input: "v0/cg/conv0/conv2d/kernel/Initializer/random_uniform/max"
  input: "v0/cg/conv0/conv2d/kernel/Initializer/random_uniform/min"
  attr {
    key: "T"
    value {
      type: DT_FLOAT
    }
  }
  attr {
    key: "_class"
    value {
      list {
        s: "loc:@v0/cg/conv0/conv2d/kernel"
      }
    }
  }
  attr {
    key: "_output_shapes"
    value {
      list {
        shape {
        }
      }
    }
  }
}
node {
  name: "v0/cg/conv0/conv2d/kernel/Initializer/random_uniform/mul"
  op: "Mul"
  input: "v0/cg/conv0/conv2d/kernel/Initializer/random_uniform/RandomUniform"
  input: "v0/cg/conv0/conv2d/kernel/Initializer/random_uniform/sub"
  attr {
    key: "T"
    value {
      type: DT_FLOAT
    }
  }
  attr {
    key: "_class"
    value {
      list {
        s: "loc:@v0/cg/conv0/conv2d/kernel"
      }
    }
  }
  attr {
    key: "_output_shapes"
    value {
      list {
        shape {
          dim {
            size: 7
          }
          dim {
            size: 7
          }
          dim {
            size: 3
          }
          dim {
            size: 64
          }
        }
      }
    }
  }
}
node {
  name: "v0/cg/conv0/conv2d/kernel/Initializer/random_uniform"
  op: "Add"
  input: "v0/cg/conv0/conv2d/kernel/Initializer/random_uniform/mul"
  input: "v0/cg/conv0/conv2d/kernel/Initializer/random_uniform/min"
  attr {
    key: "T"
    value {
      type: DT_FLOAT
    }
  }
  attr {
    key: "_class"
    value {
      list {
        s: "loc:@v0/cg/conv0/conv2d/kernel"
      }
    }
  }
  attr {
    key: "_output_shapes"
    value {
      list {
        shape {
          dim {
            size: 7
          }
          dim {
            size: 7
          }
          dim {
            size: 3
          }
          dim {
            size: 64
          }
        }
      }
    }
  }
}
node {
  name: "v0/cg/conv0/conv2d/kernel"
  op: "VariableV2"
  device: "/device:GPU:0"
  attr {
    key: "_class"
    value {
      list {
        s: "loc:@v0/cg/conv0/conv2d/kernel"
      }
    }
  }
  attr {
    key: "_output_shapes"
    value {
      list {
        shape {
          dim {
            size: 7
          }
          dim {
            size: 7
          }
          dim {
            size: 3
          }
          dim {
            size: 64
          }
        }
      }
    }
  }
  attr {
    key: "container"
    value {
      s: ""
    }
  }
  attr {
    key: "dtype"
    value {
      type: DT_FLOAT
    }
  }
  attr {
    key: "shape"
    value {
      shape {
        dim {
          size: 7
        }
        dim {
          size: 7
        }
        dim {
          size: 3
        }
        dim {
          size: 64
        }
      }
    }
  }
  attr {
    key: "shared_name"
    value {
      s: ""
    }
  }
}
node {
  name: "v0/cg/conv0/conv2d/kernel/Assign"
  op: "Assign"
  input: "v0/cg/conv0/conv2d/kernel"
  input: "v0/cg/conv0/conv2d/kernel/Initializer/random_uniform"
  device: "/device:GPU:0"
  attr {
    key: "T"
    value {
      type: DT_FLOAT
    }
  }
  attr {
    key: "_class"
    value {
      list {
        s: "loc:@v0/cg/conv0/conv2d/kernel"
      }
    }
  }
  attr {
    key: "_output_shapes"
    value {
      list {
        shape {
          dim {
            size: 7
          }
          dim {
            size: 7
          }
          dim {
            size: 3
          }
          dim {
            size: 64
          }
        }
      }
    }
  }
  attr {
    key: "use_locking"
    value {
      b: true
    }
  }
  attr {
    key: "validate_shape"
    value {
      b: true
    }
  }
}
node {
  name: "v0/cg/conv0/conv2d/kernel/read"
  op: "Identity"
  input: "v0/cg/conv0/conv2d/kernel"
  device: "/device:GPU:0"
  attr {
    key: "T"
    value {
      type: DT_FLOAT
    }
  }
  attr {
    key: "_class"
    value {
      list {
        s: "loc:@v0/cg/conv0/conv2d/kernel"
      }
    }
  }
  attr {
    key: "_output_shapes"
    value {
      list {
        shape {
          dim {
            size: 7
          }
          dim {
            size: 7
          }
          dim {
            size: 3
          }
          dim {
            size: 64
          }
        }
      }
    }
  }
}
node {
  name: "v0/tower_0/cg/conv0/conv2d/dilation_rate"
  op: "Const"
  device: "/device:GPU:0"
  attr {
    key: "_output_shapes"
    value {
      list {
        shape {
          dim {
            size: 2
          }
        }
      }
    }
  }
  attr {
    key: "dtype"
    value {
      type: DT_INT32
    }
  }
  attr {
    key: "value"
    value {
      tensor {
        dtype: DT_INT32
        tensor_shape {
          dim {
            size: 2
          }
        }
        tensor_content: "\001\000\000\000\001\000\000\000"
      }
    }
  }
}
node {
  name: "v0/tower_0/cg/conv0/conv2d/Conv2D"
  op: "Conv2D"
  input: "v0/tower_0/cg/conv0/Pad"
  input: "v0/cg/conv0/conv2d/kernel/read"
  device: "/device:GPU:0"
  attr {
    key: "T"
    value {
      type: DT_FLOAT
    }
  }
  attr {
    key: "_output_shapes"
    value {
      list {
        shape {
          dim {
            size: 64
          }
          dim {
            size: 64
          }
          dim {
            size: 112
          }
          dim {
            size: 112
          }
        }
      }
    }
  }
  attr {
    key: "data_format"
    value {
      s: "NCHW"
    }
  }
  attr {
    key: "dilations"
    value {
      list {
        i: 1
        i: 1
        i: 1
        i: 1
      }
    }
  }
  attr {
    key: "padding"
    value {
      s: "VALID"
    }
  }
  attr {
    key: "strides"
    value {
      list {
        i: 1
        i: 1
        i: 2
        i: 2
      }
    }
  }
  attr {
    key: "use_cudnn_on_gpu"
    value {
      b: true
    }
  }
}
node {
  name: "v0/cg/conv0/batchnorm0/gamma/Initializer/ones"
  op: "Const"
  attr {
    key: "_class"
    value {
      list {
        s: "loc:@v0/cg/conv0/batchnorm0/gamma"
      }
    }
  }
  attr {
    key: "_output_shapes"
    value {
      list {
        shape {
          dim {
            size: 64
          }
        }
      }
    }
  }
  attr {
    key: "dtype"
    value {
      type: DT_FLOAT
    }
  }
  attr {
    key: "value"
    value {
      tensor {
        dtype: DT_FLOAT
        tensor_shape {
          dim {
            size: 64
          }
        }
        float_val: 1.0
      }
    }
  }
}
node {
  name: "v0/cg/conv0/batchnorm0/gamma"
  op: "VariableV2"
  device: "/device:GPU:0"
  attr {
    key: "_class"
    value {
      list {
        s: "loc:@v0/cg/conv0/batchnorm0/gamma"
      }
    }
  }
  attr {
    key: "_output_shapes"
    value {
      list {
        shape {
          dim {
            size: 64
          }
        }
      }
    }
  }
  attr {
    key: "container"
    value {
      s: ""
    }
  }
  attr {
    key: "dtype"
    value {
      type: DT_FLOAT
    }
  }
  attr {
    key: "shape"
    value {
      shape {
        dim {
          size: 64
        }
      }
    }
  }
  attr {
    key: "shared_name"
    value {
      s: ""
    }
  }
}
node {
  name: "v0/cg/conv0/batchnorm0/gamma/Assign"
  op: "Assign"
  input: "v0/cg/conv0/batchnorm0/gamma"
  input: "v0/cg/conv0/batchnorm0/gamma/Initializer/ones"
  device: "/device:GPU:0"
  attr {
    key: "T"
    value {
      type: DT_FLOAT
    }
  }
  attr {
    key: "_class"
    value {
      list {
        s: "loc:@v0/cg/conv0/batchnorm0/gamma"
      }
    }
  }
  attr {
    key: "_output_shapes"
    value {
      list {
        shape {
          dim {
            size: 64
          }
        }
      }
    }
  }
  attr {
    key: "use_locking"
    value {
      b: true
    }
  }
  attr {
    key: "validate_shape"
    value {
      b: true
    }
  }
}
node {
  name: "v0/cg/conv0/batchnorm0/gamma/read"
  op: "Identity"
  input: "v0/cg/conv0/batchnorm0/gamma"
  device: "/device:GPU:0"
  attr {
    key: "T"
    value {
      type: DT_FLOAT
    }
  }
  attr {
    key: "_class"
    value {
      list {
        s: "loc:@v0/cg/conv0/batchnorm0/gamma"
      }
    }
  }
  attr {
    key: "_output_shapes"
    value {
      list {
        shape {
          dim {
            size: 64
          }
        }
      }
    }
  }
}
node {
  name: "v0/cg/conv0/batchnorm0/beta/Initializer/zeros"
  op: "Const"
  attr {
    key: "_class"
    value {
      list {
        s: "loc:@v0/cg/conv0/batchnorm0/beta"
      }
    }
  }
  attr {
    key: "_output_shapes"
    value {
      list {
        shape {
          dim {
            size: 64
          }
        }
      }
    }
  }
  attr {
    key: "dtype"
    value {
      type: DT_FLOAT
    }
  }
  attr {
    key: "value"
    value {
      tensor {
        dtype: DT_FLOAT
        tensor_shape {
          dim {
            size: 64
          }
        }
        float_val: 0.0
      }
    }
  }
}
node {
  name: "v0/cg/conv0/batchnorm0/beta"
  op: "VariableV2"
  device: "/device:GPU:0"
  attr {
    key: "_class"
    value {
      list {
        s: "loc:@v0/cg/conv0/batchnorm0/beta"
      }
    }
  }
  attr {
    key: "_output_shapes"
    value {
      list {
        shape {
          dim {
            size: 64
          }
        }
      }
    }
  }
  attr {
    key: "container"
    value {
      s: ""
    }
  }
  attr {
    key: "dtype"
    value {
      type: DT_FLOAT
    }
  }
  attr {
    key: "shape"
    value {
      shape {
        dim {
          size: 64
        }
      }
    }
  }
  attr {
    key: "shared_name"
    value {
      s: ""
    }
  }
}
node {
  name: "v0/cg/conv0/batchnorm0/beta/Assign"
  op: "Assign"
  input: "v0/cg/conv0/batchnorm0/beta"
  input: "v0/cg/conv0/batchnorm0/beta/Initializer/zeros"
  device: "/device:GPU:0"
  attr {
    key: "T"
    value {
      type: DT_FLOAT
    }
  }
  attr {
    key: "_class"
    value {
      list {
        s: "loc:@v0/cg/conv0/batchnorm0/beta"
      }
    }
  }
  attr {
    key: "_output_shapes"
    value {
      list {
        shape {
          dim {
            size: 64
          }
        }
      }
    }
  }
  attr {
    key: "use_locking"
    value {
      b: true
    }
  }
  attr {
    key: "validate_shape"
    value {
      b: true
    }
  }
}
node {
  name: "v0/cg/conv0/batchnorm0/beta/read"
  op: "Identity"
  input: "v0/cg/conv0/batchnorm0/beta"
  device: "/device:GPU:0"
  attr {
    key: "T"
    value {
      type: DT_FLOAT
    }
  }
  attr {
    key: "_class"
    value {
      list {
        s: "loc:@v0/cg/conv0/batchnorm0/beta"
      }
    }
  }
  attr {
    key: "_output_shapes"
    value {
      list {
        shape {
          dim {
            size: 64
          }
        }
      }
    }
  }
}
node {
  name: "v0/cg/conv0/batchnorm0/moving_mean/Initializer/zeros"
  op: "Const"
  attr {
    key: "_class"
    value {
      list {
        s: "loc:@v0/cg/conv0/batchnorm0/moving_mean"
      }
    }
  }
  attr {
    key: "_output_shapes"
    value {
      list {
        shape {
          dim {
            size: 64
          }
        }
      }
    }
  }
  attr {
    key: "dtype"
    value {
      type: DT_FLOAT
    }
  }
  attr {
    key: "value"
    value {
      tensor {
        dtype: DT_FLOAT
        tensor_shape {
          dim {
            size: 64
          }
        }
        float_val: 0.0
      }
    }
  }
}
node {
  name: "v0/cg/conv0/batchnorm0/moving_mean"
  op: "VariableV2"
  device: "/device:GPU:0"
  attr {
    key: "_class"
    value {
      list {
        s: "loc:@v0/cg/conv0/batchnorm0/moving_mean"
      }
    }
  }
  attr {
    key: "_output_shapes"
    value {
      list {
        shape {
          dim {
            size: 64
          }
        }
      }
    }
  }
  attr {
    key: "container"
    value {
      s: ""
    }
  }
  attr {
    key: "dtype"
    value {
      type: DT_FLOAT
    }
  }
  attr {
    key: "shape"
    value {
      shape {
        dim {
          size: 64
        }
      }
    }
  }
  attr {
    key: "shared_name"
    value {
      s: ""
    }
  }
}
node {
  name: "v0/cg/conv0/batchnorm0/moving_mean/Assign"
  op: "Assign"
  input: "v0/cg/conv0/batchnorm0/moving_mean"
  input: "v0/cg/conv0/batchnorm0/moving_mean/Initializer/zeros"
  device: "/device:GPU:0"
  attr {
    key: "T"
    value {
      type: DT_FLOAT
    }
  }
  attr {
    key: "_class"
    value {
      list {
        s: "loc:@v0/cg/conv0/batchnorm0/moving_mean"
      }
    }
  }
  attr {
    key: "_output_shapes"
    value {
      list {
        shape {
          dim {
            size: 64
          }
        }
      }
    }
  }
  attr {
    key: "use_locking"
    value {
      b: true
    }
  }
  attr {
    key: "validate_shape"
    value {
      b: true
    }
  }
}
node {
  name: "v0/cg/conv0/batchnorm0/moving_mean/read"
  op: "Identity"
  input: "v0/cg/conv0/batchnorm0/moving_mean"
  device: "/device:GPU:0"
  attr {
    key: "T"
    value {
      type: DT_FLOAT
    }
  }
  attr {
    key: "_class"
    value {
      list {
        s: "loc:@v0/cg/conv0/batchnorm0/moving_mean"
      }
    }
  }
  attr {
    key: "_output_shapes"
    value {
      list {
        shape {
          dim {
            size: 64
          }
        }
      }
    }
  }
}
node {
  name: "v0/cg/conv0/batchnorm0/moving_variance/Initializer/ones"
  op: "Const"
  attr {
    key: "_class"
    value {
      list {
        s: "loc:@v0/cg/conv0/batchnorm0/moving_variance"
      }
    }
  }
  attr {
    key: "_output_shapes"
    value {
      list {
        shape {
          dim {
            size: 64
          }
        }
      }
    }
  }
  attr {
    key: "dtype"
    value {
      type: DT_FLOAT
    }
  }
  attr {
    key: "value"
    value {
      tensor {
        dtype: DT_FLOAT
        tensor_shape {
          dim {
            size: 64
          }
        }
        float_val: 1.0
      }
    }
  }
}
node {
  name: "v0/cg/conv0/batchnorm0/moving_variance"
  op: "VariableV2"
  device: "/device:GPU:0"
  attr {
    key: "_class"
    value {
      list {
        s: "loc:@v0/cg/conv0/batchnorm0/moving_variance"
      }
    }
  }
  attr {
    key: "_output_shapes"
    value {
      list {
        shape {
          dim {
            size: 64
          }
        }
      }
    }
  }
  attr {
    key: "container"
    value {
      s: ""
    }
  }
  attr {
    key: "dtype"
    value {
      type: DT_FLOAT
    }
  }
  attr {
    key: "shape"
    value {
      shape {
        dim {
          size: 64
        }
      }
    }
  }
  attr {
    key: "shared_name"
    value {
      s: ""
    }
  }
}
node {
  name: "v0/cg/conv0/batchnorm0/moving_variance/Assign"
  op: "Assign"
  input: "v0/cg/conv0/batchnorm0/moving_variance"
  input: "v0/cg/conv0/batchnorm0/moving_variance/Initializer/ones"
  device: "/device:GPU:0"
  attr {
    key: "T"
    value {
      type: DT_FLOAT
    }
  }
  attr {
    key: "_class"
    value {
      list {
        s: "loc:@v0/cg/conv0/batchnorm0/moving_variance"
      }
    }
  }
  attr {
    key: "_output_shapes"
    value {
      list {
        shape {
          dim {
            size: 64
          }
        }
      }
    }
  }
  attr {
    key: "use_locking"
    value {
      b: true
    }
  }
  attr {
    key: "validate_shape"
    value {
      b: true
    }
  }
}
node {
  name: "v0/cg/conv0/batchnorm0/moving_variance/read"
  op: "Identity"
  input: "v0/cg/conv0/batchnorm0/moving_variance"
  device: "/device:GPU:0"
  attr {
    key: "T"
    value {
      type: DT_FLOAT
    }
  }
  attr {
    key: "_class"
    value {
      list {
        s: "loc:@v0/cg/conv0/batchnorm0/moving_variance"
      }
    }
  }
  attr {
    key: "_output_shapes"
    value {
      list {
        shape {
          dim {
            size: 64
          }
        }
      }
    }
  }
}
node {
  name: "v0/tower_0/cg/conv0/batchnorm0/Const"
  op: "Const"
  device: "/device:GPU:0"
  attr {
    key: "_output_shapes"
    value {
      list {
        shape {
          dim {
          }
        }
      }
    }
  }
  attr {
    key: "dtype"
    value {
      type: DT_FLOAT
    }
  }
  attr {
    key: "value"
    value {
      tensor {
        dtype: DT_FLOAT
        tensor_shape {
          dim {
          }
        }
      }
    }
  }
}
node {
  name: "v0/tower_0/cg/conv0/batchnorm0/Const_1"
  op: "Const"
  device: "/device:GPU:0"
  attr {
    key: "_output_shapes"
    value {
      list {
        shape {
          dim {
          }
        }
      }
    }
  }
  attr {
    key: "dtype"
    value {
      type: DT_FLOAT
    }
  }
  attr {
    key: "value"
    value {
      tensor {
        dtype: DT_FLOAT
        tensor_shape {
          dim {
          }
        }
      }
    }
  }
}
node {
  name: "v0/tower_0/cg/conv0/batchnorm0/FusedBatchNorm"
  op: "FusedBatchNorm"
  input: "v0/tower_0/cg/conv0/conv2d/Conv2D"
  input: "v0/cg/conv0/batchnorm0/gamma/read"
  input: "v0/cg/conv0/batchnorm0/beta/read"
  input: "v0/tower_0/cg/conv0/batchnorm0/Const"
  input: "v0/tower_0/cg/conv0/batchnorm0/Const_1"
  device: "/device:GPU:0"
  attr {
    key: "T"
    value {
      type: DT_FLOAT
    }
  }
  attr {
    key: "_output_shapes"
    value {
      list {
        shape {
          dim {
            size: 64
          }
          dim {
            size: 64
          }
          dim {
            size: 112
          }
          dim {
            size: 112
          }
        }
        shape {
          dim {
            size: 64
          }
        }
        shape {
          dim {
            size: 64
          }
        }
        shape {
          dim {
            size: 64
          }
        }
        shape {
          dim {
            size: 64
          }
        }
      }
    }
  }
  attr {
    key: "data_format"
    value {
      s: "NCHW"
    }
  }
  attr {
    key: "epsilon"
    value {
      f: 1.00099996416e-05
    }
  }
  attr {
    key: "is_training"
    value {
      b: true
    }
  }
}
node {
  name: "v0/tower_0/cg/conv0/batchnorm0/Const_2"
  op: "Const"
  device: "/device:GPU:0"
  attr {
    key: "_output_shapes"
    value {
      list {
        shape {
        }
      }
    }
  }
  attr {
    key: "dtype"
    value {
      type: DT_FLOAT
    }
  }
  attr {
    key: "value"
    value {
      tensor {
        dtype: DT_FLOAT
        tensor_shape {
        }
        float_val: 0.899999976158
      }
    }
  }
}
node {
  name: "v0/tower_0/cg/conv0/batchnorm0/AssignMovingAvg/sub/x"
  op: "Const"
  device: "/device:GPU:0"
  attr {
    key: "_output_shapes"
    value {
      list {
        shape {
        }
      }
    }
  }
  attr {
    key: "dtype"
    value {
      type: DT_FLOAT
    }
  }
  attr {
    key: "value"
    value {
      tensor {
        dtype: DT_FLOAT
        tensor_shape {
        }
        float_val: 1.0
      }
    }
  }
}
node {
  name: "v0/tower_0/cg/conv0/batchnorm0/AssignMovingAvg/sub"
  op: "Sub"
  input: "v0/tower_0/cg/conv0/batchnorm0/AssignMovingAvg/sub/x"
  input: "v0/tower_0/cg/conv0/batchnorm0/Const_2"
  device: "/device:GPU:0"
  attr {
    key: "T"
    value {
      type: DT_FLOAT
    }
  }
  attr {
    key: "_output_shapes"
    value {
      list {
        shape {
        }
      }
    }
  }
}
node {
  name: "v0/tower_0/cg/conv0/batchnorm0/AssignMovingAvg/sub_1"
  op: "Sub"
  input: "v0/cg/conv0/batchnorm0/moving_mean/read"
  input: "v0/tower_0/cg/conv0/batchnorm0/FusedBatchNorm:1"
  device: "/device:GPU:0"
  attr {
    key: "T"
    value {
      type: DT_FLOAT
    }
  }
  attr {
    key: "_output_shapes"
    value {
      list {
        shape {
          dim {
            size: 64
          }
        }
      }
    }
  }
}
node {
  name: "v0/tower_0/cg/conv0/batchnorm0/AssignMovingAvg/mul"
  op: "Mul"
  input: "v0/tower_0/cg/conv0/batchnorm0/AssignMovingAvg/sub_1"
  input: "v0/tower_0/cg/conv0/batchnorm0/AssignMovingAvg/sub"
  device: "/device:GPU:0"
  attr {
    key: "T"
    value {
      type: DT_FLOAT
    }
  }
  attr {
    key: "_output_shapes"
    value {
      list {
        shape {
          dim {
            size: 64
          }
        }
      }
    }
  }
}
node {
  name: "v0/tower_0/cg/conv0/batchnorm0/AssignMovingAvg"
  op: "AssignSub"
  input: "v0/cg/conv0/batchnorm0/moving_mean"
  input: "v0/tower_0/cg/conv0/batchnorm0/AssignMovingAvg/mul"
  device: "/device:GPU:0"
  attr {
    key: "T"
    value {
      type: DT_FLOAT
    }
  }
  attr {
    key: "_class"
    value {
      list {
        s: "loc:@v0/cg/conv0/batchnorm0/moving_mean"
      }
    }
  }
  attr {
    key: "_output_shapes"
    value {
      list {
        shape {
          dim {
            size: 64
          }
        }
      }
    }
  }
  attr {
    key: "use_locking"
    value {
      b: false
    }
  }
}
node {
  name: "v0/tower_0/cg/conv0/batchnorm0/AssignMovingAvg_1/sub/x"
  op: "Const"
  device: "/device:GPU:0"
  attr {
    key: "_output_shapes"
    value {
      list {
        shape {
        }
      }
    }
  }
  attr {
    key: "dtype"
    value {
      type: DT_FLOAT
    }
  }
  attr {
    key: "value"
    value {
      tensor {
        dtype: DT_FLOAT
        tensor_shape {
        }
        float_val: 1.0
      }
    }
  }
}
node {
  name: "v0/tower_0/cg/conv0/batchnorm0/AssignMovingAvg_1/sub"
  op: "Sub"
  input: "v0/tower_0/cg/conv0/batchnorm0/AssignMovingAvg_1/sub/x"
  input: "v0/tower_0/cg/conv0/batchnorm0/Const_2"
  device: "/device:GPU:0"
  attr {
    key: "T"
    value {
      type: DT_FLOAT
    }
  }
  attr {
    key: "_output_shapes"
    value {
      list {
        shape {
        }
      }
    }
  }
}
node {
  name: "v0/tower_0/cg/conv0/batchnorm0/AssignMovingAvg_1/sub_1"
  op: "Sub"
  input: "v0/cg/conv0/batchnorm0/moving_variance/read"
  input: "v0/tower_0/cg/conv0/batchnorm0/FusedBatchNorm:2"
  device: "/device:GPU:0"
  attr {
    key: "T"
    value {
      type: DT_FLOAT
    }
  }
  attr {
    key: "_output_shapes"
    value {
      list {
        shape {
          dim {
            size: 64
          }
        }
      }
    }
  }
}
node {
  name: "v0/tower_0/cg/conv0/batchnorm0/AssignMovingAvg_1/mul"
  op: "Mul"
  input: "v0/tower_0/cg/conv0/batchnorm0/AssignMovingAvg_1/sub_1"
  input: "v0/tower_0/cg/conv0/batchnorm0/AssignMovingAvg_1/sub"
  device: "/device:GPU:0"
  attr {
    key: "T"
    value {
      type: DT_FLOAT
    }
  }
  attr {
    key: "_output_shapes"
    value {
      list {
        shape {
          dim {
            size: 64
          }
        }
      }
    }
  }
}
node {
  name: "v0/tower_0/cg/conv0/batchnorm0/AssignMovingAvg_1"
  op: "AssignSub"
  input: "v0/cg/conv0/batchnorm0/moving_variance"
  input: "v0/tower_0/cg/conv0/batchnorm0/AssignMovingAvg_1/mul"
  device: "/device:GPU:0"
  attr {
    key: "T"
    value {
      type: DT_FLOAT
    }
  }
  attr {
    key: "_class"
    value {
      list {
        s: "loc:@v0/cg/conv0/batchnorm0/moving_variance"
      }
    }
  }
  attr {
    key: "_output_shapes"
    value {
      list {
        shape {
          dim {
            size: 64
          }
        }
      }
    }
  }
  attr {
    key: "use_locking"
    value {
      b: false
    }
  }
}
node {
  name: "v0/tower_0/cg/conv0/Relu"
  op: "Relu"
  input: "v0/tower_0/cg/conv0/batchnorm0/FusedBatchNorm"
  device: "/device:GPU:0"
  attr {
    key: "T"
    value {
      type: DT_FLOAT
    }
  }
  attr {
    key: "_output_shapes"
    value {
      list {
        shape {
          dim {
            size: 64
          }
          dim {
            size: 64
          }
          dim {
            size: 112
          }
          dim {
            size: 112
          }
        }
      }
    }
  }
}
node {
  name: "v0/tower_0/cg/mpool0/MaxPool"
  op: "MaxPool"
  input: "v0/tower_0/cg/conv0/Relu"
  device: "/device:GPU:0"
  attr {
    key: "T"
    value {
      type: DT_FLOAT
    }
  }
  attr {
    key: "_output_shapes"
    value {
      list {
        shape {
          dim {
            size: 64
          }
          dim {
            size: 64
          }
          dim {
            size: 56
          }
          dim {
            size: 56
          }
        }
      }
    }
  }
  attr {
    key: "data_format"
    value {
      s: "NCHW"
    }
  }
  attr {
    key: "ksize"
    value {
      list {
        i: 1
        i: 1
        i: 3
        i: 3
      }
    }
  }
  attr {
    key: "padding"
    value {
      s: "SAME"
    }
  }
  attr {
    key: "strides"
    value {
      list {
        i: 1
        i: 1
        i: 2
        i: 2
      }
    }
  }
}
node {
  name: "v0/cg/resnet_v10/conv1/conv2d/kernel/Initializer/random_uniform/shape"
  op: "Const"
  attr {
    key: "_class"
    value {
      list {
        s: "loc:@v0/cg/resnet_v10/conv1/conv2d/kernel"
      }
    }
  }
  attr {
    key: "_output_shapes"
    value {
      list {
        shape {
          dim {
            size: 4
          }
        }
      }
    }
  }
  attr {
    key: "dtype"
    value {
      type: DT_INT32
    }
  }
  attr {
    key: "value"
    value {
      tensor {
        dtype: DT_INT32
        tensor_shape {
          dim {
            size: 4
          }
        }
        tensor_content: "\001\000\000\000\001\000\000\000@\000\000\000\000\001\000\000"
      }
    }
  }
}
node {
  name: "v0/cg/resnet_v10/conv1/conv2d/kernel/Initializer/random_uniform/min"
  op: "Const"
  attr {
    key: "_class"
    value {
      list {
        s: "loc:@v0/cg/resnet_v10/conv1/conv2d/kernel"
      }
    }
  }
  attr {
    key: "_output_shapes"
    value {
      list {
        shape {
        }
      }
    }
  }
  attr {
    key: "dtype"
    value {
      type: DT_FLOAT
    }
  }
  attr {
    key: "value"
    value {
      tensor {
        dtype: DT_FLOAT
        tensor_shape {
        }
        float_val: -0.136930644512
      }
    }
  }
}
node {
  name: "v0/cg/resnet_v10/conv1/conv2d/kernel/Initializer/random_uniform/max"
  op: "Const"
  attr {
    key: "_class"
    value {
      list {
        s: "loc:@v0/cg/resnet_v10/conv1/conv2d/kernel"
      }
    }
  }
  attr {
    key: "_output_shapes"
    value {
      list {
        shape {
        }
      }
    }
  }
  attr {
    key: "dtype"
    value {
      type: DT_FLOAT
    }
  }
  attr {
    key: "value"
    value {
      tensor {
        dtype: DT_FLOAT
        tensor_shape {
        }
        float_val: 0.136930644512
      }
    }
  }
}
node {
  name: "v0/cg/resnet_v10/conv1/conv2d/kernel/Initializer/random_uniform/RandomUniform"
  op: "RandomUniform"
  input: "v0/cg/resnet_v10/conv1/conv2d/kernel/Initializer/random_uniform/shape"
  attr {
    key: "T"
    value {
      type: DT_INT32
    }
  }
  attr {
    key: "_class"
    value {
      list {
        s: "loc:@v0/cg/resnet_v10/conv1/conv2d/kernel"
      }
    }
  }
  attr {
    key: "_output_shapes"
    value {
      list {
        shape {
          dim {
            size: 1
          }
          dim {
            size: 1
          }
          dim {
            size: 64
          }
          dim {
            size: 256
          }
        }
      }
    }
  }
  attr {
    key: "dtype"
    value {
      type: DT_FLOAT
    }
  }
  attr {
    key: "seed"
    value {
      i: 1234
    }
  }
  attr {
    key: "seed2"
    value {
      i: 86
    }
  }
}
node {
  name: "v0/cg/resnet_v10/conv1/conv2d/kernel/Initializer/random_uniform/sub"
  op: "Sub"
  input: "v0/cg/resnet_v10/conv1/conv2d/kernel/Initializer/random_uniform/max"
  input: "v0/cg/resnet_v10/conv1/conv2d/kernel/Initializer/random_uniform/min"
  attr {
    key: "T"
    value {
      type: DT_FLOAT
    }
  }
  attr {
    key: "_class"
    value {
      list {
        s: "loc:@v0/cg/resnet_v10/conv1/conv2d/kernel"
      }
    }
  }
  attr {
    key: "_output_shapes"
    value {
      list {
        shape {
        }
      }
    }
  }
}
node {
  name: "v0/cg/resnet_v10/conv1/conv2d/kernel/Initializer/random_uniform/mul"
  op: "Mul"
  input: "v0/cg/resnet_v10/conv1/conv2d/kernel/Initializer/random_uniform/RandomUniform"
  input: "v0/cg/resnet_v10/conv1/conv2d/kernel/Initializer/random_uniform/sub"
  attr {
    key: "T"
    value {
      type: DT_FLOAT
    }
  }
  attr {
    key: "_class"
    value {
      list {
        s: "loc:@v0/cg/resnet_v10/conv1/conv2d/kernel"
      }
    }
  }
  attr {
    key: "_output_shapes"
    value {
      list {
        shape {
          dim {
            size: 1
          }
          dim {
            size: 1
          }
          dim {
            size: 64
          }
          dim {
            size: 256
          }
        }
      }
    }
  }
}
node {
  name: "v0/cg/resnet_v10/conv1/conv2d/kernel/Initializer/random_uniform"
  op: "Add"
  input: "v0/cg/resnet_v10/conv1/conv2d/kernel/Initializer/random_uniform/mul"
  input: "v0/cg/resnet_v10/conv1/conv2d/kernel/Initializer/random_uniform/min"
  attr {
    key: "T"
    value {
      type: DT_FLOAT
    }
  }
  attr {
    key: "_class"
    value {
      list {
        s: "loc:@v0/cg/resnet_v10/conv1/conv2d/kernel"
      }
    }
  }
  attr {
    key: "_output_shapes"
    value {
      list {
        shape {
          dim {
            size: 1
          }
          dim {
            size: 1
          }
          dim {
            size: 64
          }
          dim {
            size: 256
          }
        }
      }
    }
  }
}
node {
  name: "v0/cg/resnet_v10/conv1/conv2d/kernel"
  op: "VariableV2"
  device: "/device:GPU:0"
  attr {
    key: "_class"
    value {
      list {
        s: "loc:@v0/cg/resnet_v10/conv1/conv2d/kernel"
      }
    }
  }
  attr {
    key: "_output_shapes"
    value {
      list {
        shape {
          dim {
            size: 1
          }
          dim {
            size: 1
          }
          dim {
            size: 64
          }
          dim {
            size: 256
          }
        }
      }
    }
  }
  attr {
    key: "container"
    value {
      s: ""
    }
  }
  attr {
    key: "dtype"
    value {
      type: DT_FLOAT
    }
  }
  attr {
    key: "shape"
    value {
      shape {
        dim {
          size: 1
        }
        dim {
          size: 1
        }
        dim {
          size: 64
        }
        dim {
          size: 256
        }
      }
    }
  }
  attr {
    key: "shared_name"
    value {
      s: ""
    }
  }
}
node {
  name: "v0/cg/resnet_v10/conv1/conv2d/kernel/Assign"
  op: "Assign"
  input: "v0/cg/resnet_v10/conv1/conv2d/kernel"
  input: "v0/cg/resnet_v10/conv1/conv2d/kernel/Initializer/random_uniform"
  device: "/device:GPU:0"
  attr {
    key: "T"
    value {
      type: DT_FLOAT
    }
  }
  attr {
    key: "_class"
    value {
      list {
        s: "loc:@v0/cg/resnet_v10/conv1/conv2d/kernel"
      }
    }
  }
  attr {
    key: "_output_shapes"
    value {
      list {
        shape {
          dim {
            size: 1
          }
          dim {
            size: 1
          }
          dim {
            size: 64
          }
          dim {
            size: 256
          }
        }
      }
    }
  }
  attr {
    key: "use_locking"
    value {
      b: true
    }
  }
  attr {
    key: "validate_shape"
    value {
      b: true
    }
  }
}
node {
  name: "v0/cg/resnet_v10/conv1/conv2d/kernel/read"
  op: "Identity"
  input: "v0/cg/resnet_v10/conv1/conv2d/kernel"
  device: "/device:GPU:0"
  attr {
    key: "T"
    value {
      type: DT_FLOAT
    }
  }
  attr {
    key: "_class"
    value {
      list {
        s: "loc:@v0/cg/resnet_v10/conv1/conv2d/kernel"
      }
    }
  }
  attr {
    key: "_output_shapes"
    value {
      list {
        shape {
          dim {
            size: 1
          }
          dim {
            size: 1
          }
          dim {
            size: 64
          }
          dim {
            size: 256
          }
        }
      }
    }
  }
}
node {
  name: "v0/tower_0/cg/resnet_v10/conv1/conv2d/dilation_rate"
  op: "Const"
  device: "/device:GPU:0"
  attr {
    key: "_output_shapes"
    value {
      list {
        shape {
          dim {
            size: 2
          }
        }
      }
    }
  }
  attr {
    key: "dtype"
    value {
      type: DT_INT32
    }
  }
  attr {
    key: "value"
    value {
      tensor {
        dtype: DT_INT32
        tensor_shape {
          dim {
            size: 2
          }
        }
        tensor_content: "\001\000\000\000\001\000\000\000"
      }
    }
  }
}
node {
  name: "v0/tower_0/cg/resnet_v10/conv1/conv2d/Conv2D"
  op: "Conv2D"
  input: "v0/tower_0/cg/mpool0/MaxPool"
  input: "v0/cg/resnet_v10/conv1/conv2d/kernel/read"
  device: "/device:GPU:0"
  attr {
    key: "T"
    value {
      type: DT_FLOAT
    }
  }
  attr {
    key: "_output_shapes"
    value {
      list {
        shape {
          dim {
            size: 64
          }
          dim {
            size: 256
          }
          dim {
            size: 56
          }
          dim {
            size: 56
          }
        }
      }
    }
  }
  attr {
    key: "data_format"
    value {
      s: "NCHW"
    }
  }
  attr {
    key: "dilations"
    value {
      list {
        i: 1
        i: 1
        i: 1
        i: 1
      }
    }
  }
  attr {
    key: "padding"
    value {
      s: "SAME"
    }
  }
  attr {
    key: "strides"
    value {
      list {
        i: 1
        i: 1
        i: 1
        i: 1
      }
    }
  }
  attr {
    key: "use_cudnn_on_gpu"
    value {
      b: true
    }
  }
}
node {
  name: "v0/cg/resnet_v10/conv1/batchnorm1/gamma/Initializer/ones"
  op: "Const"
  attr {
    key: "_class"
    value {
      list {
        s: "loc:@v0/cg/resnet_v10/conv1/batchnorm1/gamma"
      }
    }
  }
  attr {
    key: "_output_shapes"
    value {
      list {
        shape {
          dim {
            size: 256
          }
        }
      }
    }
  }
  attr {
    key: "dtype"
    value {
      type: DT_FLOAT
    }
  }
  attr {
    key: "value"
    value {
      tensor {
        dtype: DT_FLOAT
        tensor_shape {
          dim {
            size: 256
          }
        }
        float_val: 1.0
      }
    }
  }
}
node {
  name: "v0/cg/resnet_v10/conv1/batchnorm1/gamma"
  op: "VariableV2"
  device: "/device:GPU:0"
  attr {
    key: "_class"
    value {
      list {
        s: "loc:@v0/cg/resnet_v10/conv1/batchnorm1/gamma"
      }
    }
  }
  attr {
    key: "_output_shapes"
    value {
      list {
        shape {
          dim {
            size: 256
          }
        }
      }
    }
  }
  attr {
    key: "container"
    value {
      s: ""
    }
  }
  attr {
    key: "dtype"
    value {
      type: DT_FLOAT
    }
  }
  attr {
    key: "shape"
    value {
      shape {
        dim {
          size: 256
        }
      }
    }
  }
  attr {
    key: "shared_name"
    value {
      s: ""
    }
  }
}
node {
  name: "v0/cg/resnet_v10/conv1/batchnorm1/gamma/Assign"
  op: "Assign"
  input: "v0/cg/resnet_v10/conv1/batchnorm1/gamma"
  input: "v0/cg/resnet_v10/conv1/batchnorm1/gamma/Initializer/ones"
  device: "/device:GPU:0"
  attr {
    key: "T"
    value {
      type: DT_FLOAT
    }
  }
  attr {
    key: "_class"
    value {
      list {
        s: "loc:@v0/cg/resnet_v10/conv1/batchnorm1/gamma"
      }
    }
  }
  attr {
    key: "_output_shapes"
    value {
      list {
        shape {
          dim {
            size: 256
          }
        }
      }
    }
  }
  attr {
    key: "use_locking"
    value {
      b: true
    }
  }
  attr {
    key: "validate_shape"
    value {
      b: true
    }
  }
}
node {
  name: "v0/cg/resnet_v10/conv1/batchnorm1/gamma/read"
  op: "Identity"
  input: "v0/cg/resnet_v10/conv1/batchnorm1/gamma"
  device: "/device:GPU:0"
  attr {
    key: "T"
    value {
      type: DT_FLOAT
    }
  }
  attr {
    key: "_class"
    value {
      list {
        s: "loc:@v0/cg/resnet_v10/conv1/batchnorm1/gamma"
      }
    }
  }
  attr {
    key: "_output_shapes"
    value {
      list {
        shape {
          dim {
            size: 256
          }
        }
      }
    }
  }
}
node {
  name: "v0/cg/resnet_v10/conv1/batchnorm1/beta/Initializer/zeros"
  op: "Const"
  attr {
    key: "_class"
    value {
      list {
        s: "loc:@v0/cg/resnet_v10/conv1/batchnorm1/beta"
      }
    }
  }
  attr {
    key: "_output_shapes"
    value {
      list {
        shape {
          dim {
            size: 256
          }
        }
      }
    }
  }
  attr {
    key: "dtype"
    value {
      type: DT_FLOAT
    }
  }
  attr {
    key: "value"
    value {
      tensor {
        dtype: DT_FLOAT
        tensor_shape {
          dim {
            size: 256
          }
        }
        float_val: 0.0
      }
    }
  }
}
node {
  name: "v0/cg/resnet_v10/conv1/batchnorm1/beta"
  op: "VariableV2"
  device: "/device:GPU:0"
  attr {
    key: "_class"
    value {
      list {
        s: "loc:@v0/cg/resnet_v10/conv1/batchnorm1/beta"
      }
    }
  }
  attr {
    key: "_output_shapes"
    value {
      list {
        shape {
          dim {
            size: 256
          }
        }
      }
    }
  }
  attr {
    key: "container"
    value {
      s: ""
    }
  }
  attr {
    key: "dtype"
    value {
      type: DT_FLOAT
    }
  }
  attr {
    key: "shape"
    value {
      shape {
        dim {
          size: 256
        }
      }
    }
  }
  attr {
    key: "shared_name"
    value {
      s: ""
    }
  }
}
node {
  name: "v0/cg/resnet_v10/conv1/batchnorm1/beta/Assign"
  op: "Assign"
  input: "v0/cg/resnet_v10/conv1/batchnorm1/beta"
  input: "v0/cg/resnet_v10/conv1/batchnorm1/beta/Initializer/zeros"
  device: "/device:GPU:0"
  attr {
    key: "T"
    value {
      type: DT_FLOAT
    }
  }
  attr {
    key: "_class"
    value {
      list {
        s: "loc:@v0/cg/resnet_v10/conv1/batchnorm1/beta"
      }
    }
  }
  attr {
    key: "_output_shapes"
    value {
      list {
        shape {
          dim {
            size: 256
          }
        }
      }
    }
  }
  attr {
    key: "use_locking"
    value {
      b: true
    }
  }
  attr {
    key: "validate_shape"
    value {
      b: true
    }
  }
}
node {
  name: "v0/cg/resnet_v10/conv1/batchnorm1/beta/read"
  op: "Identity"
  input: "v0/cg/resnet_v10/conv1/batchnorm1/beta"
  device: "/device:GPU:0"
  attr {
    key: "T"
    value {
      type: DT_FLOAT
    }
  }
  attr {
    key: "_class"
    value {
      list {
        s: "loc:@v0/cg/resnet_v10/conv1/batchnorm1/beta"
      }
    }
  }
  attr {
    key: "_output_shapes"
    value {
      list {
        shape {
          dim {
            size: 256
          }
        }
      }
    }
  }
}
node {
  name: "v0/cg/resnet_v10/conv1/batchnorm1/moving_mean/Initializer/zeros"
  op: "Const"
  attr {
    key: "_class"
    value {
      list {
        s: "loc:@v0/cg/resnet_v10/conv1/batchnorm1/moving_mean"
      }
    }
  }
  attr {
    key: "_output_shapes"
    value {
      list {
        shape {
          dim {
            size: 256
          }
        }
      }
    }
  }
  attr {
    key: "dtype"
    value {
      type: DT_FLOAT
    }
  }
  attr {
    key: "value"
    value {
      tensor {
        dtype: DT_FLOAT
        tensor_shape {
          dim {
            size: 256
          }
        }
        float_val: 0.0
      }
    }
  }
}
node {
  name: "v0/cg/resnet_v10/conv1/batchnorm1/moving_mean"
  op: "VariableV2"
  device: "/device:GPU:0"
  attr {
    key: "_class"
    value {
      list {
        s: "loc:@v0/cg/resnet_v10/conv1/batchnorm1/moving_mean"
      }
    }
  }
  attr {
    key: "_output_shapes"
    value {
      list {
        shape {
          dim {
            size: 256
          }
        }
      }
    }
  }
  attr {
    key: "container"
    value {
      s: ""
    }
  }
  attr {
    key: "dtype"
    value {
      type: DT_FLOAT
    }
  }
  attr {
    key: "shape"
    value {
      shape {
        dim {
          size: 256
        }
      }
    }
  }
  attr {
    key: "shared_name"
    value {
      s: ""
    }
  }
}
node {
  name: "v0/cg/resnet_v10/conv1/batchnorm1/moving_mean/Assign"
  op: "Assign"
  input: "v0/cg/resnet_v10/conv1/batchnorm1/moving_mean"
  input: "v0/cg/resnet_v10/conv1/batchnorm1/moving_mean/Initializer/zeros"
  device: "/device:GPU:0"
  attr {
    key: "T"
    value {
      type: DT_FLOAT
    }
  }
  attr {
    key: "_class"
    value {
      list {
        s: "loc:@v0/cg/resnet_v10/conv1/batchnorm1/moving_mean"
      }
    }
  }
  attr {
    key: "_output_shapes"
    value {
      list {
        shape {
          dim {
            size: 256
          }
        }
      }
    }
  }
  attr {
    key: "use_locking"
    value {
      b: true
    }
  }
  attr {
    key: "validate_shape"
    value {
      b: true
    }
  }
}
node {
  name: "v0/cg/resnet_v10/conv1/batchnorm1/moving_mean/read"
  op: "Identity"
  input: "v0/cg/resnet_v10/conv1/batchnorm1/moving_mean"
  device: "/device:GPU:0"
  attr {
    key: "T"
    value {
      type: DT_FLOAT
    }
  }
  attr {
    key: "_class"
    value {
      list {
        s: "loc:@v0/cg/resnet_v10/conv1/batchnorm1/moving_mean"
      }
    }
  }
  attr {
    key: "_output_shapes"
    value {
      list {
        shape {
          dim {
            size: 256
          }
        }
      }
    }
  }
}
node {
  name: "v0/cg/resnet_v10/conv1/batchnorm1/moving_variance/Initializer/ones"
  op: "Const"
  attr {
    key: "_class"
    value {
      list {
        s: "loc:@v0/cg/resnet_v10/conv1/batchnorm1/moving_variance"
      }
    }
  }
  attr {
    key: "_output_shapes"
    value {
      list {
        shape {
          dim {
            size: 256
          }
        }
      }
    }
  }
  attr {
    key: "dtype"
    value {
      type: DT_FLOAT
    }
  }
  attr {
    key: "value"
    value {
      tensor {
        dtype: DT_FLOAT
        tensor_shape {
          dim {
            size: 256
          }
        }
        float_val: 1.0
      }
    }
  }
}
node {
  name: "v0/cg/resnet_v10/conv1/batchnorm1/moving_variance"
  op: "VariableV2"
  device: "/device:GPU:0"
  attr {
    key: "_class"
    value {
      list {
        s: "loc:@v0/cg/resnet_v10/conv1/batchnorm1/moving_variance"
      }
    }
  }
  attr {
    key: "_output_shapes"
    value {
      list {
        shape {
          dim {
            size: 256
          }
        }
      }
    }
  }
  attr {
    key: "container"
    value {
      s: ""
    }
  }
  attr {
    key: "dtype"
    value {
      type: DT_FLOAT
    }
  }
  attr {
    key: "shape"
    value {
      shape {
        dim {
          size: 256
        }
      }
    }
  }
  attr {
    key: "shared_name"
    value {
      s: ""
    }
  }
}
node {
  name: "v0/cg/resnet_v10/conv1/batchnorm1/moving_variance/Assign"
  op: "Assign"
  input: "v0/cg/resnet_v10/conv1/batchnorm1/moving_variance"
  input: "v0/cg/resnet_v10/conv1/batchnorm1/moving_variance/Initializer/ones"
  device: "/device:GPU:0"
  attr {
    key: "T"
    value {
      type: DT_FLOAT
    }
  }
  attr {
    key: "_class"
    value {
      list {
        s: "loc:@v0/cg/resnet_v10/conv1/batchnorm1/moving_variance"
      }
    }
  }
  attr {
    key: "_output_shapes"
    value {
      list {
        shape {
          dim {
            size: 256
          }
        }
      }
    }
  }
  attr {
    key: "use_locking"
    value {
      b: true
    }
  }
  attr {
    key: "validate_shape"
    value {
      b: true
    }
  }
}
node {
  name: "v0/cg/resnet_v10/conv1/batchnorm1/moving_variance/read"
  op: "Identity"
  input: "v0/cg/resnet_v10/conv1/batchnorm1/moving_variance"
  device: "/device:GPU:0"
  attr {
    key: "T"
    value {
      type: DT_FLOAT
    }
  }
  attr {
    key: "_class"
    value {
      list {
        s: "loc:@v0/cg/resnet_v10/conv1/batchnorm1/moving_variance"
      }
    }
  }
  attr {
    key: "_output_shapes"
    value {
      list {
        shape {
          dim {
            size: 256
          }
        }
      }
    }
  }
}
node {
  name: "v0/tower_0/cg/resnet_v10/conv1/batchnorm1/Const"
  op: "Const"
  device: "/device:GPU:0"
  attr {
    key: "_output_shapes"
    value {
      list {
        shape {
          dim {
          }
        }
      }
    }
  }
  attr {
    key: "dtype"
    value {
      type: DT_FLOAT
    }
  }
  attr {
    key: "value"
    value {
      tensor {
        dtype: DT_FLOAT
        tensor_shape {
          dim {
          }
        }
      }
    }
  }
}
node {
  name: "v0/tower_0/cg/resnet_v10/conv1/batchnorm1/Const_1"
  op: "Const"
  device: "/device:GPU:0"
  attr {
    key: "_output_shapes"
    value {
      list {
        shape {
          dim {
          }
        }
      }
    }
  }
  attr {
    key: "dtype"
    value {
      type: DT_FLOAT
    }
  }
  attr {
    key: "value"
    value {
      tensor {
        dtype: DT_FLOAT
        tensor_shape {
          dim {
          }
        }
      }
    }
  }
}
node {
  name: "v0/tower_0/cg/resnet_v10/conv1/batchnorm1/FusedBatchNorm"
  op: "FusedBatchNorm"
  input: "v0/tower_0/cg/resnet_v10/conv1/conv2d/Conv2D"
  input: "v0/cg/resnet_v10/conv1/batchnorm1/gamma/read"
  input: "v0/cg/resnet_v10/conv1/batchnorm1/beta/read"
  input: "v0/tower_0/cg/resnet_v10/conv1/batchnorm1/Const"
  input: "v0/tower_0/cg/resnet_v10/conv1/batchnorm1/Const_1"
  device: "/device:GPU:0"
  attr {
    key: "T"
    value {
      type: DT_FLOAT
    }
  }
  attr {
    key: "_output_shapes"
    value {
      list {
        shape {
          dim {
            size: 64
          }
          dim {
            size: 256
          }
          dim {
            size: 56
          }
          dim {
            size: 56
          }
        }
        shape {
          dim {
            size: 256
          }
        }
        shape {
          dim {
            size: 256
          }
        }
        shape {
          dim {
            size: 256
          }
        }
        shape {
          dim {
            size: 256
          }
        }
      }
    }
  }
  attr {
    key: "data_format"
    value {
      s: "NCHW"
    }
  }
  attr {
    key: "epsilon"
    value {
      f: 1.00099996416e-05
    }
  }
  attr {
    key: "is_training"
    value {
      b: true
    }
  }
}
node {
  name: "v0/tower_0/cg/resnet_v10/conv1/batchnorm1/Const_2"
  op: "Const"
  device: "/device:GPU:0"
  attr {
    key: "_output_shapes"
    value {
      list {
        shape {
        }
      }
    }
  }
  attr {
    key: "dtype"
    value {
      type: DT_FLOAT
    }
  }
  attr {
    key: "value"
    value {
      tensor {
        dtype: DT_FLOAT
        tensor_shape {
        }
        float_val: 0.899999976158
      }
    }
  }
}
node {
  name: "v0/tower_0/cg/resnet_v10/conv1/batchnorm1/AssignMovingAvg/sub/x"
  op: "Const"
  device: "/device:GPU:0"
  attr {
    key: "_output_shapes"
    value {
      list {
        shape {
        }
      }
    }
  }
  attr {
    key: "dtype"
    value {
      type: DT_FLOAT
    }
  }
  attr {
    key: "value"
    value {
      tensor {
        dtype: DT_FLOAT
        tensor_shape {
        }
        float_val: 1.0
      }
    }
  }
}
node {
  name: "v0/tower_0/cg/resnet_v10/conv1/batchnorm1/AssignMovingAvg/sub"
  op: "Sub"
  input: "v0/tower_0/cg/resnet_v10/conv1/batchnorm1/AssignMovingAvg/sub/x"
  input: "v0/tower_0/cg/resnet_v10/conv1/batchnorm1/Const_2"
  device: "/device:GPU:0"
  attr {
    key: "T"
    value {
      type: DT_FLOAT
    }
  }
  attr {
    key: "_output_shapes"
    value {
      list {
        shape {
        }
      }
    }
  }
}
node {
  name: "v0/tower_0/cg/resnet_v10/conv1/batchnorm1/AssignMovingAvg/sub_1"
  op: "Sub"
  input: "v0/cg/resnet_v10/conv1/batchnorm1/moving_mean/read"
  input: "v0/tower_0/cg/resnet_v10/conv1/batchnorm1/FusedBatchNorm:1"
  device: "/device:GPU:0"
  attr {
    key: "T"
    value {
      type: DT_FLOAT
    }
  }
  attr {
    key: "_output_shapes"
    value {
      list {
        shape {
          dim {
            size: 256
          }
        }
      }
    }
  }
}
node {
  name: "v0/tower_0/cg/resnet_v10/conv1/batchnorm1/AssignMovingAvg/mul"
  op: "Mul"
  input: "v0/tower_0/cg/resnet_v10/conv1/batchnorm1/AssignMovingAvg/sub_1"
  input: "v0/tower_0/cg/resnet_v10/conv1/batchnorm1/AssignMovingAvg/sub"
  device: "/device:GPU:0"
  attr {
    key: "T"
    value {
      type: DT_FLOAT
    }
  }
  attr {
    key: "_output_shapes"
    value {
      list {
        shape {
          dim {
            size: 256
          }
        }
      }
    }
  }
}
node {
  name: "v0/tower_0/cg/resnet_v10/conv1/batchnorm1/AssignMovingAvg"
  op: "AssignSub"
  input: "v0/cg/resnet_v10/conv1/batchnorm1/moving_mean"
  input: "v0/tower_0/cg/resnet_v10/conv1/batchnorm1/AssignMovingAvg/mul"
  device: "/device:GPU:0"
  attr {
    key: "T"
    value {
      type: DT_FLOAT
    }
  }
  attr {
    key: "_class"
    value {
      list {
        s: "loc:@v0/cg/resnet_v10/conv1/batchnorm1/moving_mean"
      }
    }
  }
  attr {
    key: "_output_shapes"
    value {
      list {
        shape {
          dim {
            size: 256
          }
        }
      }
    }
  }
  attr {
    key: "use_locking"
    value {
      b: false
    }
  }
}
node {
  name: "v0/tower_0/cg/resnet_v10/conv1/batchnorm1/AssignMovingAvg_1/sub/x"
  op: "Const"
  device: "/device:GPU:0"
  attr {
    key: "_output_shapes"
    value {
      list {
        shape {
        }
      }
    }
  }
  attr {
    key: "dtype"
    value {
      type: DT_FLOAT
    }
  }
  attr {
    key: "value"
    value {
      tensor {
        dtype: DT_FLOAT
        tensor_shape {
        }
        float_val: 1.0
      }
    }
  }
}
node {
  name: "v0/tower_0/cg/resnet_v10/conv1/batchnorm1/AssignMovingAvg_1/sub"
  op: "Sub"
  input: "v0/tower_0/cg/resnet_v10/conv1/batchnorm1/AssignMovingAvg_1/sub/x"
  input: "v0/tower_0/cg/resnet_v10/conv1/batchnorm1/Const_2"
  device: "/device:GPU:0"
  attr {
    key: "T"
    value {
      type: DT_FLOAT
    }
  }
  attr {
    key: "_output_shapes"
    value {
      list {
        shape {
        }
      }
    }
  }
}
node {
  name: "v0/tower_0/cg/resnet_v10/conv1/batchnorm1/AssignMovingAvg_1/sub_1"
  op: "Sub"
  input: "v0/cg/resnet_v10/conv1/batchnorm1/moving_variance/read"
  input: "v0/tower_0/cg/resnet_v10/conv1/batchnorm1/FusedBatchNorm:2"
  device: "/device:GPU:0"
  attr {
    key: "T"
    value {
      type: DT_FLOAT
    }
  }
  attr {
    key: "_output_shapes"
    value {
      list {
        shape {
          dim {
            size: 256
          }
        }
      }
    }
  }
}
node {
  name: "v0/tower_0/cg/resnet_v10/conv1/batchnorm1/AssignMovingAvg_1/mul"
  op: "Mul"
  input: "v0/tower_0/cg/resnet_v10/conv1/batchnorm1/AssignMovingAvg_1/sub_1"
  input: "v0/tower_0/cg/resnet_v10/conv1/batchnorm1/AssignMovingAvg_1/sub"
  device: "/device:GPU:0"
  attr {
    key: "T"
    value {
      type: DT_FLOAT
    }
  }
  attr {
    key: "_output_shapes"
    value {
      list {
        shape {
          dim {
            size: 256
          }
        }
      }
    }
  }
}
node {
  name: "v0/tower_0/cg/resnet_v10/conv1/batchnorm1/AssignMovingAvg_1"
  op: "AssignSub"
  input: "v0/cg/resnet_v10/conv1/batchnorm1/moving_variance"
  input: "v0/tower_0/cg/resnet_v10/conv1/batchnorm1/AssignMovingAvg_1/mul"
  device: "/device:GPU:0"
  attr {
    key: "T"
    value {
      type: DT_FLOAT
    }
  }
  attr {
    key: "_class"
    value {
      list {
        s: "loc:@v0/cg/resnet_v10/conv1/batchnorm1/moving_variance"
      }
    }
  }
  attr {
    key: "_output_shapes"
    value {
      list {
        shape {
          dim {
            size: 256
          }
        }
      }
    }
  }
  attr {
    key: "use_locking"
    value {
      b: false
    }
  }
}
node {
  name: "v0/cg/resnet_v10/conv2/conv2d/kernel/Initializer/random_uniform/shape"
  op: "Const"
  attr {
    key: "_class"
    value {
      list {
        s: "loc:@v0/cg/resnet_v10/conv2/conv2d/kernel"
      }
    }
  }
  attr {
    key: "_output_shapes"
    value {
      list {
        shape {
          dim {
            size: 4
          }
        }
      }
    }
  }
  attr {
    key: "dtype"
    value {
      type: DT_INT32
    }
  }
  attr {
    key: "value"
    value {
      tensor {
        dtype: DT_INT32
        tensor_shape {
          dim {
            size: 4
          }
        }
        tensor_content: "\001\000\000\000\001\000\000\000@\000\000\000@\000\000\000"
      }
    }
  }
}
node {
  name: "v0/cg/resnet_v10/conv2/conv2d/kernel/Initializer/random_uniform/min"
  op: "Const"
  attr {
    key: "_class"
    value {
      list {
        s: "loc:@v0/cg/resnet_v10/conv2/conv2d/kernel"
      }
    }
  }
  attr {
    key: "_output_shapes"
    value {
      list {
        shape {
        }
      }
    }
  }
  attr {
    key: "dtype"
    value {
      type: DT_FLOAT
    }
  }
  attr {
    key: "value"
    value {
      tensor {
        dtype: DT_FLOAT
        tensor_shape {
        }
        float_val: -0.21650634706
      }
    }
  }
}
node {
  name: "v0/cg/resnet_v10/conv2/conv2d/kernel/Initializer/random_uniform/max"
  op: "Const"
  attr {
    key: "_class"
    value {
      list {
        s: "loc:@v0/cg/resnet_v10/conv2/conv2d/kernel"
      }
    }
  }
  attr {
    key: "_output_shapes"
    value {
      list {
        shape {
        }
      }
    }
  }
  attr {
    key: "dtype"
    value {
      type: DT_FLOAT
    }
  }
  attr {
    key: "value"
    value {
      tensor {
        dtype: DT_FLOAT
        tensor_shape {
        }
        float_val: 0.21650634706
      }
    }
  }
}
node {
  name: "v0/cg/resnet_v10/conv2/conv2d/kernel/Initializer/random_uniform/RandomUniform"
  op: "RandomUniform"
  input: "v0/cg/resnet_v10/conv2/conv2d/kernel/Initializer/random_uniform/shape"
  attr {
    key: "T"
    value {
      type: DT_INT32
    }
  }
  attr {
    key: "_class"
    value {
      list {
        s: "loc:@v0/cg/resnet_v10/conv2/conv2d/kernel"
      }
    }
  }
  attr {
    key: "_output_shapes"
    value {
      list {
        shape {
          dim {
            size: 1
          }
          dim {
            size: 1
          }
          dim {
            size: 64
          }
          dim {
            size: 64
          }
        }
      }
    }
  }
  attr {
    key: "dtype"
    value {
      type: DT_FLOAT
    }
  }
  attr {
    key: "seed"
    value {
      i: 1234
    }
  }
  attr {
    key: "seed2"
    value {
      i: 128
    }
  }
}
node {
  name: "v0/cg/resnet_v10/conv2/conv2d/kernel/Initializer/random_uniform/sub"
  op: "Sub"
  input: "v0/cg/resnet_v10/conv2/conv2d/kernel/Initializer/random_uniform/max"
  input: "v0/cg/resnet_v10/conv2/conv2d/kernel/Initializer/random_uniform/min"
  attr {
    key: "T"
    value {
      type: DT_FLOAT
    }
  }
  attr {
    key: "_class"
    value {
      list {
        s: "loc:@v0/cg/resnet_v10/conv2/conv2d/kernel"
      }
    }
  }
  attr {
    key: "_output_shapes"
    value {
      list {
        shape {
        }
      }
    }
  }
}
node {
  name: "v0/cg/resnet_v10/conv2/conv2d/kernel/Initializer/random_uniform/mul"
  op: "Mul"
  input: "v0/cg/resnet_v10/conv2/conv2d/kernel/Initializer/random_uniform/RandomUniform"
  input: "v0/cg/resnet_v10/conv2/conv2d/kernel/Initializer/random_uniform/sub"
  attr {
    key: "T"
    value {
      type: DT_FLOAT
    }
  }
  attr {
    key: "_class"
    value {
      list {
        s: "loc:@v0/cg/resnet_v10/conv2/conv2d/kernel"
      }
    }
  }
  attr {
    key: "_output_shapes"
    value {
      list {
        shape {
          dim {
            size: 1
          }
          dim {
            size: 1
          }
          dim {
            size: 64
          }
          dim {
            size: 64
          }
        }
      }
    }
  }
}
node {
  name: "v0/cg/resnet_v10/conv2/conv2d/kernel/Initializer/random_uniform"
  op: "Add"
  input: "v0/cg/resnet_v10/conv2/conv2d/kernel/Initializer/random_uniform/mul"
  input: "v0/cg/resnet_v10/conv2/conv2d/kernel/Initializer/random_uniform/min"
  attr {
    key: "T"
    value {
      type: DT_FLOAT
    }
  }
  attr {
    key: "_class"
    value {
      list {
        s: "loc:@v0/cg/resnet_v10/conv2/conv2d/kernel"
      }
    }
  }
  attr {
    key: "_output_shapes"
    value {
      list {
        shape {
          dim {
            size: 1
          }
          dim {
            size: 1
          }
          dim {
            size: 64
          }
          dim {
            size: 64
          }
        }
      }
    }
  }
}
node {
  name: "v0/cg/resnet_v10/conv2/conv2d/kernel"
  op: "VariableV2"
  device: "/device:GPU:0"
  attr {
    key: "_class"
    value {
      list {
        s: "loc:@v0/cg/resnet_v10/conv2/conv2d/kernel"
      }
    }
  }
  attr {
    key: "_output_shapes"
    value {
      list {
        shape {
          dim {
            size: 1
          }
          dim {
            size: 1
          }
          dim {
            size: 64
          }
          dim {
            size: 64
          }
        }
      }
    }
  }
  attr {
    key: "container"
    value {
      s: ""
    }
  }
  attr {
    key: "dtype"
    value {
      type: DT_FLOAT
    }
  }
  attr {
    key: "shape"
    value {
      shape {
        dim {
          size: 1
        }
        dim {
          size: 1
        }
        dim {
          size: 64
        }
        dim {
          size: 64
        }
      }
    }
  }
  attr {
    key: "shared_name"
    value {
      s: ""
    }
  }
}
node {
  name: "v0/cg/resnet_v10/conv2/conv2d/kernel/Assign"
  op: "Assign"
  input: "v0/cg/resnet_v10/conv2/conv2d/kernel"
  input: "v0/cg/resnet_v10/conv2/conv2d/kernel/Initializer/random_uniform"
  device: "/device:GPU:0"
  attr {
    key: "T"
    value {
      type: DT_FLOAT
    }
  }
  attr {
    key: "_class"
    value {
      list {
        s: "loc:@v0/cg/resnet_v10/conv2/conv2d/kernel"
      }
    }
  }
  attr {
    key: "_output_shapes"
    value {
      list {
        shape {
          dim {
            size: 1
          }
          dim {
            size: 1
          }
          dim {
            size: 64
          }
          dim {
            size: 64
          }
        }
      }
    }
  }
  attr {
    key: "use_locking"
    value {
      b: true
    }
  }
  attr {
    key: "validate_shape"
    value {
      b: true
    }
  }
}
node {
  name: "v0/cg/resnet_v10/conv2/conv2d/kernel/read"
  op: "Identity"
  input: "v0/cg/resnet_v10/conv2/conv2d/kernel"
  device: "/device:GPU:0"
  attr {
    key: "T"
    value {
      type: DT_FLOAT
    }
  }
  attr {
    key: "_class"
    value {
      list {
        s: "loc:@v0/cg/resnet_v10/conv2/conv2d/kernel"
      }
    }
  }
  attr {
    key: "_output_shapes"
    value {
      list {
        shape {
          dim {
            size: 1
          }
          dim {
            size: 1
          }
          dim {
            size: 64
          }
          dim {
            size: 64
          }
        }
      }
    }
  }
}
node {
  name: "v0/tower_0/cg/resnet_v10/conv2/conv2d/dilation_rate"
  op: "Const"
  device: "/device:GPU:0"
  attr {
    key: "_output_shapes"
    value {
      list {
        shape {
          dim {
            size: 2
          }
        }
      }
    }
  }
  attr {
    key: "dtype"
    value {
      type: DT_INT32
    }
  }
  attr {
    key: "value"
    value {
      tensor {
        dtype: DT_INT32
        tensor_shape {
          dim {
            size: 2
          }
        }
        tensor_content: "\001\000\000\000\001\000\000\000"
      }
    }
  }
}
node {
  name: "v0/tower_0/cg/resnet_v10/conv2/conv2d/Conv2D"
  op: "Conv2D"
  input: "v0/tower_0/cg/mpool0/MaxPool"
  input: "v0/cg/resnet_v10/conv2/conv2d/kernel/read"
  device: "/device:GPU:0"
  attr {
    key: "T"
    value {
      type: DT_FLOAT
    }
  }
  attr {
    key: "_output_shapes"
    value {
      list {
        shape {
          dim {
            size: 64
          }
          dim {
            size: 64
          }
          dim {
            size: 56
          }
          dim {
            size: 56
          }
        }
      }
    }
  }
  attr {
    key: "data_format"
    value {
      s: "NCHW"
    }
  }
  attr {
    key: "dilations"
    value {
      list {
        i: 1
        i: 1
        i: 1
        i: 1
      }
    }
  }
  attr {
    key: "padding"
    value {
      s: "SAME"
    }
  }
  attr {
    key: "strides"
    value {
      list {
        i: 1
        i: 1
        i: 1
        i: 1
      }
    }
  }
  attr {
    key: "use_cudnn_on_gpu"
    value {
      b: true
    }
  }
}
node {
  name: "v0/cg/resnet_v10/conv2/batchnorm2/gamma/Initializer/ones"
  op: "Const"
  attr {
    key: "_class"
    value {
      list {
        s: "loc:@v0/cg/resnet_v10/conv2/batchnorm2/gamma"
      }
    }
  }
  attr {
    key: "_output_shapes"
    value {
      list {
        shape {
          dim {
            size: 64
          }
        }
      }
    }
  }
  attr {
    key: "dtype"
    value {
      type: DT_FLOAT
    }
  }
  attr {
    key: "value"
    value {
      tensor {
        dtype: DT_FLOAT
        tensor_shape {
          dim {
            size: 64
          }
        }
        float_val: 1.0
      }
    }
  }
}
node {
  name: "v0/cg/resnet_v10/conv2/batchnorm2/gamma"
  op: "VariableV2"
  device: "/device:GPU:0"
  attr {
    key: "_class"
    value {
      list {
        s: "loc:@v0/cg/resnet_v10/conv2/batchnorm2/gamma"
      }
    }
  }
  attr {
    key: "_output_shapes"
    value {
      list {
        shape {
          dim {
            size: 64
          }
        }
      }
    }
  }
  attr {
    key: "container"
    value {
      s: ""
    }
  }
  attr {
    key: "dtype"
    value {
      type: DT_FLOAT
    }
  }
  attr {
    key: "shape"
    value {
      shape {
        dim {
          size: 64
        }
      }
    }
  }
  attr {
    key: "shared_name"
    value {
      s: ""
    }
  }
}
node {
  name: "v0/cg/resnet_v10/conv2/batchnorm2/gamma/Assign"
  op: "Assign"
  input: "v0/cg/resnet_v10/conv2/batchnorm2/gamma"
  input: "v0/cg/resnet_v10/conv2/batchnorm2/gamma/Initializer/ones"
  device: "/device:GPU:0"
  attr {
    key: "T"
    value {
      type: DT_FLOAT
    }
  }
  attr {
    key: "_class"
    value {
      list {
        s: "loc:@v0/cg/resnet_v10/conv2/batchnorm2/gamma"
      }
    }
  }
  attr {
    key: "_output_shapes"
    value {
      list {
        shape {
          dim {
            size: 64
          }
        }
      }
    }
  }
  attr {
    key: "use_locking"
    value {
      b: true
    }
  }
  attr {
    key: "validate_shape"
    value {
      b: true
    }
  }
}
node {
  name: "v0/cg/resnet_v10/conv2/batchnorm2/gamma/read"
  op: "Identity"
  input: "v0/cg/resnet_v10/conv2/batchnorm2/gamma"
  device: "/device:GPU:0"
  attr {
    key: "T"
    value {
      type: DT_FLOAT
    }
  }
  attr {
    key: "_class"
    value {
      list {
        s: "loc:@v0/cg/resnet_v10/conv2/batchnorm2/gamma"
      }
    }
  }
  attr {
    key: "_output_shapes"
    value {
      list {
        shape {
          dim {
            size: 64
          }
        }
      }
    }
  }
}
node {
  name: "v0/cg/resnet_v10/conv2/batchnorm2/beta/Initializer/zeros"
  op: "Const"
  attr {
    key: "_class"
    value {
      list {
        s: "loc:@v0/cg/resnet_v10/conv2/batchnorm2/beta"
      }
    }
  }
  attr {
    key: "_output_shapes"
    value {
      list {
        shape {
          dim {
            size: 64
          }
        }
      }
    }
  }
  attr {
    key: "dtype"
    value {
      type: DT_FLOAT
    }
  }
  attr {
    key: "value"
    value {
      tensor {
        dtype: DT_FLOAT
        tensor_shape {
          dim {
            size: 64
          }
        }
        float_val: 0.0
      }
    }
  }
}
node {
  name: "v0/cg/resnet_v10/conv2/batchnorm2/beta"
  op: "VariableV2"
  device: "/device:GPU:0"
  attr {
    key: "_class"
    value {
      list {
        s: "loc:@v0/cg/resnet_v10/conv2/batchnorm2/beta"
      }
    }
  }
  attr {
    key: "_output_shapes"
    value {
      list {
        shape {
          dim {
            size: 64
          }
        }
      }
    }
  }
  attr {
    key: "container"
    value {
      s: ""
    }
  }
  attr {
    key: "dtype"
    value {
      type: DT_FLOAT
    }
  }
  attr {
    key: "shape"
    value {
      shape {
        dim {
          size: 64
        }
      }
    }
  }
  attr {
    key: "shared_name"
    value {
      s: ""
    }
  }
}
node {
  name: "v0/cg/resnet_v10/conv2/batchnorm2/beta/Assign"
  op: "Assign"
  input: "v0/cg/resnet_v10/conv2/batchnorm2/beta"
  input: "v0/cg/resnet_v10/conv2/batchnorm2/beta/Initializer/zeros"
  device: "/device:GPU:0"
  attr {
    key: "T"
    value {
      type: DT_FLOAT
    }
  }
  attr {
    key: "_class"
    value {
      list {
        s: "loc:@v0/cg/resnet_v10/conv2/batchnorm2/beta"
      }
    }
  }
  attr {
    key: "_output_shapes"
    value {
      list {
        shape {
          dim {
            size: 64
          }
        }
      }
    }
  }
  attr {
    key: "use_locking"
    value {
      b: true
    }
  }
  attr {
    key: "validate_shape"
    value {
      b: true
    }
  }
}
node {
  name: "v0/cg/resnet_v10/conv2/batchnorm2/beta/read"
  op: "Identity"
  input: "v0/cg/resnet_v10/conv2/batchnorm2/beta"
  device: "/device:GPU:0"
  attr {
    key: "T"
    value {
      type: DT_FLOAT
    }
  }
  attr {
    key: "_class"
    value {
      list {
        s: "loc:@v0/cg/resnet_v10/conv2/batchnorm2/beta"
      }
    }
  }
  attr {
    key: "_output_shapes"
    value {
      list {
        shape {
          dim {
            size: 64
          }
        }
      }
    }
  }
}
node {
  name: "v0/cg/resnet_v10/conv2/batchnorm2/moving_mean/Initializer/zeros"
  op: "Const"
  attr {
    key: "_class"
    value {
      list {
        s: "loc:@v0/cg/resnet_v10/conv2/batchnorm2/moving_mean"
      }
    }
  }
  attr {
    key: "_output_shapes"
    value {
      list {
        shape {
          dim {
            size: 64
          }
        }
      }
    }
  }
  attr {
    key: "dtype"
    value {
      type: DT_FLOAT
    }
  }
  attr {
    key: "value"
    value {
      tensor {
        dtype: DT_FLOAT
        tensor_shape {
          dim {
            size: 64
          }
        }
        float_val: 0.0
      }
    }
  }
}
node {
  name: "v0/cg/resnet_v10/conv2/batchnorm2/moving_mean"
  op: "VariableV2"
  device: "/device:GPU:0"
  attr {
    key: "_class"
    value {
      list {
        s: "loc:@v0/cg/resnet_v10/conv2/batchnorm2/moving_mean"
      }
    }
  }
  attr {
    key: "_output_shapes"
    value {
      list {
        shape {
          dim {
            size: 64
          }
        }
      }
    }
  }
  attr {
    key: "container"
    value {
      s: ""
    }
  }
  attr {
    key: "dtype"
    value {
      type: DT_FLOAT
    }
  }
  attr {
    key: "shape"
    value {
      shape {
        dim {
          size: 64
        }
      }
    }
  }
  attr {
    key: "shared_name"
    value {
      s: ""
    }
  }
}
node {
  name: "v0/cg/resnet_v10/conv2/batchnorm2/moving_mean/Assign"
  op: "Assign"
  input: "v0/cg/resnet_v10/conv2/batchnorm2/moving_mean"
  input: "v0/cg/resnet_v10/conv2/batchnorm2/moving_mean/Initializer/zeros"
  device: "/device:GPU:0"
  attr {
    key: "T"
    value {
      type: DT_FLOAT
    }
  }
  attr {
    key: "_class"
    value {
      list {
        s: "loc:@v0/cg/resnet_v10/conv2/batchnorm2/moving_mean"
      }
    }
  }
  attr {
    key: "_output_shapes"
    value {
      list {
        shape {
          dim {
            size: 64
          }
        }
      }
    }
  }
  attr {
    key: "use_locking"
    value {
      b: true
    }
  }
  attr {
    key: "validate_shape"
    value {
      b: true
    }
  }
}
node {
  name: "v0/cg/resnet_v10/conv2/batchnorm2/moving_mean/read"
  op: "Identity"
  input: "v0/cg/resnet_v10/conv2/batchnorm2/moving_mean"
  device: "/device:GPU:0"
  attr {
    key: "T"
    value {
      type: DT_FLOAT
    }
  }
  attr {
    key: "_class"
    value {
      list {
        s: "loc:@v0/cg/resnet_v10/conv2/batchnorm2/moving_mean"
      }
    }
  }
  attr {
    key: "_output_shapes"
    value {
      list {
        shape {
          dim {
            size: 64
          }
        }
      }
    }
  }
}
node {
  name: "v0/cg/resnet_v10/conv2/batchnorm2/moving_variance/Initializer/ones"
  op: "Const"
  attr {
    key: "_class"
    value {
      list {
        s: "loc:@v0/cg/resnet_v10/conv2/batchnorm2/moving_variance"
      }
    }
  }
  attr {
    key: "_output_shapes"
    value {
      list {
        shape {
          dim {
            size: 64
          }
        }
      }
    }
  }
  attr {
    key: "dtype"
    value {
      type: DT_FLOAT
    }
  }
  attr {
    key: "value"
    value {
      tensor {
        dtype: DT_FLOAT
        tensor_shape {
          dim {
            size: 64
          }
        }
        float_val: 1.0
      }
    }
  }
}
node {
  name: "v0/cg/resnet_v10/conv2/batchnorm2/moving_variance"
  op: "VariableV2"
  device: "/device:GPU:0"
  attr {
    key: "_class"
    value {
      list {
        s: "loc:@v0/cg/resnet_v10/conv2/batchnorm2/moving_variance"
      }
    }
  }
  attr {
    key: "_output_shapes"
    value {
      list {
        shape {
          dim {
            size: 64
          }
        }
      }
    }
  }
  attr {
    key: "container"
    value {
      s: ""
    }
  }
  attr {
    key: "dtype"
    value {
      type: DT_FLOAT
    }
  }
  attr {
    key: "shape"
    value {
      shape {
        dim {
          size: 64
        }
      }
    }
  }
  attr {
    key: "shared_name"
    value {
      s: ""
    }
  }
}
node {
  name: "v0/cg/resnet_v10/conv2/batchnorm2/moving_variance/Assign"
  op: "Assign"
  input: "v0/cg/resnet_v10/conv2/batchnorm2/moving_variance"
  input: "v0/cg/resnet_v10/conv2/batchnorm2/moving_variance/Initializer/ones"
  device: "/device:GPU:0"
  attr {
    key: "T"
    value {
      type: DT_FLOAT
    }
  }
  attr {
    key: "_class"
    value {
      list {
        s: "loc:@v0/cg/resnet_v10/conv2/batchnorm2/moving_variance"
      }
    }
  }
  attr {
    key: "_output_shapes"
    value {
      list {
        shape {
          dim {
            size: 64
          }
        }
      }
    }
  }
  attr {
    key: "use_locking"
    value {
      b: true
    }
  }
  attr {
    key: "validate_shape"
    value {
      b: true
    }
  }
}
node {
  name: "v0/cg/resnet_v10/conv2/batchnorm2/moving_variance/read"
  op: "Identity"
  input: "v0/cg/resnet_v10/conv2/batchnorm2/moving_variance"
  device: "/device:GPU:0"
  attr {
    key: "T"
    value {
      type: DT_FLOAT
    }
  }
  attr {
    key: "_class"
    value {
      list {
        s: "loc:@v0/cg/resnet_v10/conv2/batchnorm2/moving_variance"
      }
    }
  }
  attr {
    key: "_output_shapes"
    value {
      list {
        shape {
          dim {
            size: 64
          }
        }
      }
    }
  }
}
node {
  name: "v0/tower_0/cg/resnet_v10/conv2/batchnorm2/Const"
  op: "Const"
  device: "/device:GPU:0"
  attr {
    key: "_output_shapes"
    value {
      list {
        shape {
          dim {
          }
        }
      }
    }
  }
  attr {
    key: "dtype"
    value {
      type: DT_FLOAT
    }
  }
  attr {
    key: "value"
    value {
      tensor {
        dtype: DT_FLOAT
        tensor_shape {
          dim {
          }
        }
      }
    }
  }
}
node {
  name: "v0/tower_0/cg/resnet_v10/conv2/batchnorm2/Const_1"
  op: "Const"
  device: "/device:GPU:0"
  attr {
    key: "_output_shapes"
    value {
      list {
        shape {
          dim {
          }
        }
      }
    }
  }
  attr {
    key: "dtype"
    value {
      type: DT_FLOAT
    }
  }
  attr {
    key: "value"
    value {
      tensor {
        dtype: DT_FLOAT
        tensor_shape {
          dim {
          }
        }
      }
    }
  }
}
node {
  name: "v0/tower_0/cg/resnet_v10/conv2/batchnorm2/FusedBatchNorm"
  op: "FusedBatchNorm"
  input: "v0/tower_0/cg/resnet_v10/conv2/conv2d/Conv2D"
  input: "v0/cg/resnet_v10/conv2/batchnorm2/gamma/read"
  input: "v0/cg/resnet_v10/conv2/batchnorm2/beta/read"
  input: "v0/tower_0/cg/resnet_v10/conv2/batchnorm2/Const"
  input: "v0/tower_0/cg/resnet_v10/conv2/batchnorm2/Const_1"
  device: "/device:GPU:0"
  attr {
    key: "T"
    value {
      type: DT_FLOAT
    }
  }
  attr {
    key: "_output_shapes"
    value {
      list {
        shape {
          dim {
            size: 64
          }
          dim {
            size: 64
          }
          dim {
            size: 56
          }
          dim {
            size: 56
          }
        }
        shape {
          dim {
            size: 64
          }
        }
        shape {
          dim {
            size: 64
          }
        }
        shape {
          dim {
            size: 64
          }
        }
        shape {
          dim {
            size: 64
          }
        }
      }
    }
  }
  attr {
    key: "data_format"
    value {
      s: "NCHW"
    }
  }
  attr {
    key: "epsilon"
    value {
      f: 1.00099996416e-05
    }
  }
  attr {
    key: "is_training"
    value {
      b: true
    }
  }
}
node {
  name: "v0/tower_0/cg/resnet_v10/conv2/batchnorm2/Const_2"
  op: "Const"
  device: "/device:GPU:0"
  attr {
    key: "_output_shapes"
    value {
      list {
        shape {
        }
      }
    }
  }
  attr {
    key: "dtype"
    value {
      type: DT_FLOAT
    }
  }
  attr {
    key: "value"
    value {
      tensor {
        dtype: DT_FLOAT
        tensor_shape {
        }
        float_val: 0.899999976158
      }
    }
  }
}
node {
  name: "v0/tower_0/cg/resnet_v10/conv2/batchnorm2/AssignMovingAvg/sub/x"
  op: "Const"
  device: "/device:GPU:0"
  attr {
    key: "_output_shapes"
    value {
      list {
        shape {
        }
      }
    }
  }
  attr {
    key: "dtype"
    value {
      type: DT_FLOAT
    }
  }
  attr {
    key: "value"
    value {
      tensor {
        dtype: DT_FLOAT
        tensor_shape {
        }
        float_val: 1.0
      }
    }
  }
}
node {
  name: "v0/tower_0/cg/resnet_v10/conv2/batchnorm2/AssignMovingAvg/sub"
  op: "Sub"
  input: "v0/tower_0/cg/resnet_v10/conv2/batchnorm2/AssignMovingAvg/sub/x"
  input: "v0/tower_0/cg/resnet_v10/conv2/batchnorm2/Const_2"
  device: "/device:GPU:0"
  attr {
    key: "T"
    value {
      type: DT_FLOAT
    }
  }
  attr {
    key: "_output_shapes"
    value {
      list {
        shape {
        }
      }
    }
  }
}
node {
  name: "v0/tower_0/cg/resnet_v10/conv2/batchnorm2/AssignMovingAvg/sub_1"
  op: "Sub"
  input: "v0/cg/resnet_v10/conv2/batchnorm2/moving_mean/read"
  input: "v0/tower_0/cg/resnet_v10/conv2/batchnorm2/FusedBatchNorm:1"
  device: "/device:GPU:0"
  attr {
    key: "T"
    value {
      type: DT_FLOAT
    }
  }
  attr {
    key: "_output_shapes"
    value {
      list {
        shape {
          dim {
            size: 64
          }
        }
      }
    }
  }
}
node {
  name: "v0/tower_0/cg/resnet_v10/conv2/batchnorm2/AssignMovingAvg/mul"
  op: "Mul"
  input: "v0/tower_0/cg/resnet_v10/conv2/batchnorm2/AssignMovingAvg/sub_1"
  input: "v0/tower_0/cg/resnet_v10/conv2/batchnorm2/AssignMovingAvg/sub"
  device: "/device:GPU:0"
  attr {
    key: "T"
    value {
      type: DT_FLOAT
    }
  }
  attr {
    key: "_output_shapes"
    value {
      list {
        shape {
          dim {
            size: 64
          }
        }
      }
    }
  }
}
node {
  name: "v0/tower_0/cg/resnet_v10/conv2/batchnorm2/AssignMovingAvg"
  op: "AssignSub"
  input: "v0/cg/resnet_v10/conv2/batchnorm2/moving_mean"
  input: "v0/tower_0/cg/resnet_v10/conv2/batchnorm2/AssignMovingAvg/mul"
  device: "/device:GPU:0"
  attr {
    key: "T"
    value {
      type: DT_FLOAT
    }
  }
  attr {
    key: "_class"
    value {
      list {
        s: "loc:@v0/cg/resnet_v10/conv2/batchnorm2/moving_mean"
      }
    }
  }
  attr {
    key: "_output_shapes"
    value {
      list {
        shape {
          dim {
            size: 64
          }
        }
      }
    }
  }
  attr {
    key: "use_locking"
    value {
      b: false
    }
  }
}
node {
  name: "v0/tower_0/cg/resnet_v10/conv2/batchnorm2/AssignMovingAvg_1/sub/x"
  op: "Const"
  device: "/device:GPU:0"
  attr {
    key: "_output_shapes"
    value {
      list {
        shape {
        }
      }
    }
  }
  attr {
    key: "dtype"
    value {
      type: DT_FLOAT
    }
  }
  attr {
    key: "value"
    value {
      tensor {
        dtype: DT_FLOAT
        tensor_shape {
        }
        float_val: 1.0
      }
    }
  }
}
node {
  name: "v0/tower_0/cg/resnet_v10/conv2/batchnorm2/AssignMovingAvg_1/sub"
  op: "Sub"
  input: "v0/tower_0/cg/resnet_v10/conv2/batchnorm2/AssignMovingAvg_1/sub/x"
  input: "v0/tower_0/cg/resnet_v10/conv2/batchnorm2/Const_2"
  device: "/device:GPU:0"
  attr {
    key: "T"
    value {
      type: DT_FLOAT
    }
  }
  attr {
    key: "_output_shapes"
    value {
      list {
        shape {
        }
      }
    }
  }
}
node {
  name: "v0/tower_0/cg/resnet_v10/conv2/batchnorm2/AssignMovingAvg_1/sub_1"
  op: "Sub"
  input: "v0/cg/resnet_v10/conv2/batchnorm2/moving_variance/read"
  input: "v0/tower_0/cg/resnet_v10/conv2/batchnorm2/FusedBatchNorm:2"
  device: "/device:GPU:0"
  attr {
    key: "T"
    value {
      type: DT_FLOAT
    }
  }
  attr {
    key: "_output_shapes"
    value {
      list {
        shape {
          dim {
            size: 64
          }
        }
      }
    }
  }
}
node {
  name: "v0/tower_0/cg/resnet_v10/conv2/batchnorm2/AssignMovingAvg_1/mul"
  op: "Mul"
  input: "v0/tower_0/cg/resnet_v10/conv2/batchnorm2/AssignMovingAvg_1/sub_1"
  input: "v0/tower_0/cg/resnet_v10/conv2/batchnorm2/AssignMovingAvg_1/sub"
  device: "/device:GPU:0"
  attr {
    key: "T"
    value {
      type: DT_FLOAT
    }
  }
  attr {
    key: "_output_shapes"
    value {
      list {
        shape {
          dim {
            size: 64
          }
        }
      }
    }
  }
}
node {
  name: "v0/tower_0/cg/resnet_v10/conv2/batchnorm2/AssignMovingAvg_1"
  op: "AssignSub"
  input: "v0/cg/resnet_v10/conv2/batchnorm2/moving_variance"
  input: "v0/tower_0/cg/resnet_v10/conv2/batchnorm2/AssignMovingAvg_1/mul"
  device: "/device:GPU:0"
  attr {
    key: "T"
    value {
      type: DT_FLOAT
    }
  }
  attr {
    key: "_class"
    value {
      list {
        s: "loc:@v0/cg/resnet_v10/conv2/batchnorm2/moving_variance"
      }
    }
  }
  attr {
    key: "_output_shapes"
    value {
      list {
        shape {
          dim {
            size: 64
          }
        }
      }
    }
  }
  attr {
    key: "use_locking"
    value {
      b: false
    }
  }
}
node {
  name: "v0/tower_0/cg/resnet_v10/conv2/Relu"
  op: "Relu"
  input: "v0/tower_0/cg/resnet_v10/conv2/batchnorm2/FusedBatchNorm"
  device: "/device:GPU:0"
  attr {
    key: "T"
    value {
      type: DT_FLOAT
    }
  }
  attr {
    key: "_output_shapes"
    value {
      list {
        shape {
          dim {
            size: 64
          }
          dim {
            size: 64
          }
          dim {
            size: 56
          }
          dim {
            size: 56
          }
        }
      }
    }
  }
}
node {
  name: "v0/cg/resnet_v10/conv3/conv2d/kernel/Initializer/random_uniform/shape"
  op: "Const"
  attr {
    key: "_class"
    value {
      list {
        s: "loc:@v0/cg/resnet_v10/conv3/conv2d/kernel"
      }
    }
  }
  attr {
    key: "_output_shapes"
    value {
      list {
        shape {
          dim {
            size: 4
          }
        }
      }
    }
  }
  attr {
    key: "dtype"
    value {
      type: DT_INT32
    }
  }
  attr {
    key: "value"
    value {
      tensor {
        dtype: DT_INT32
        tensor_shape {
          dim {
            size: 4
          }
        }
        tensor_content: "\003\000\000\000\003\000\000\000@\000\000\000@\000\000\000"
      }
    }
  }
}
node {
  name: "v0/cg/resnet_v10/conv3/conv2d/kernel/Initializer/random_uniform/min"
  op: "Const"
  attr {
    key: "_class"
    value {
      list {
        s: "loc:@v0/cg/resnet_v10/conv3/conv2d/kernel"
      }
    }
  }
  attr {
    key: "_output_shapes"
    value {
      list {
        shape {
        }
      }
    }
  }
  attr {
    key: "dtype"
    value {
      type: DT_FLOAT
    }
  }
  attr {
    key: "value"
    value {
      tensor {
        dtype: DT_FLOAT
        tensor_shape {
        }
        float_val: -0.0721687823534
      }
    }
  }
}
node {
  name: "v0/cg/resnet_v10/conv3/conv2d/kernel/Initializer/random_uniform/max"
  op: "Const"
  attr {
    key: "_class"
    value {
      list {
        s: "loc:@v0/cg/resnet_v10/conv3/conv2d/kernel"
      }
    }
  }
  attr {
    key: "_output_shapes"
    value {
      list {
        shape {
        }
      }
    }
  }
  attr {
    key: "dtype"
    value {
      type: DT_FLOAT
    }
  }
  attr {
    key: "value"
    value {
      tensor {
        dtype: DT_FLOAT
        tensor_shape {
        }
        float_val: 0.0721687823534
      }
    }
  }
}
node {
  name: "v0/cg/resnet_v10/conv3/conv2d/kernel/Initializer/random_uniform/RandomUniform"
  op: "RandomUniform"
  input: "v0/cg/resnet_v10/conv3/conv2d/kernel/Initializer/random_uniform/shape"
  attr {
    key: "T"
    value {
      type: DT_INT32
    }
  }
  attr {
    key: "_class"
    value {
      list {
        s: "loc:@v0/cg/resnet_v10/conv3/conv2d/kernel"
      }
    }
  }
  attr {
    key: "_output_shapes"
    value {
      list {
        shape {
          dim {
            size: 3
          }
          dim {
            size: 3
          }
          dim {
            size: 64
          }
          dim {
            size: 64
          }
        }
      }
    }
  }
  attr {
    key: "dtype"
    value {
      type: DT_FLOAT
    }
  }
  attr {
    key: "seed"
    value {
      i: 1234
    }
  }
  attr {
    key: "seed2"
    value {
      i: 171
    }
  }
}
node {
  name: "v0/cg/resnet_v10/conv3/conv2d/kernel/Initializer/random_uniform/sub"
  op: "Sub"
  input: "v0/cg/resnet_v10/conv3/conv2d/kernel/Initializer/random_uniform/max"
  input: "v0/cg/resnet_v10/conv3/conv2d/kernel/Initializer/random_uniform/min"
  attr {
    key: "T"
    value {
      type: DT_FLOAT
    }
  }
  attr {
    key: "_class"
    value {
      list {
        s: "loc:@v0/cg/resnet_v10/conv3/conv2d/kernel"
      }
    }
  }
  attr {
    key: "_output_shapes"
    value {
      list {
        shape {
        }
      }
    }
  }
}
node {
  name: "v0/cg/resnet_v10/conv3/conv2d/kernel/Initializer/random_uniform/mul"
  op: "Mul"
  input: "v0/cg/resnet_v10/conv3/conv2d/kernel/Initializer/random_uniform/RandomUniform"
  input: "v0/cg/resnet_v10/conv3/conv2d/kernel/Initializer/random_uniform/sub"
  attr {
    key: "T"
    value {
      type: DT_FLOAT
    }
  }
  attr {
    key: "_class"
    value {
      list {
        s: "loc:@v0/cg/resnet_v10/conv3/conv2d/kernel"
      }
    }
  }
  attr {
    key: "_output_shapes"
    value {
      list {
        shape {
          dim {
            size: 3
          }
          dim {
            size: 3
          }
          dim {
            size: 64
          }
          dim {
            size: 64
          }
        }
      }
    }
  }
}
node {
  name: "v0/cg/resnet_v10/conv3/conv2d/kernel/Initializer/random_uniform"
  op: "Add"
  input: "v0/cg/resnet_v10/conv3/conv2d/kernel/Initializer/random_uniform/mul"
  input: "v0/cg/resnet_v10/conv3/conv2d/kernel/Initializer/random_uniform/min"
  attr {
    key: "T"
    value {
      type: DT_FLOAT
    }
  }
  attr {
    key: "_class"
    value {
      list {
        s: "loc:@v0/cg/resnet_v10/conv3/conv2d/kernel"
      }
    }
  }
  attr {
    key: "_output_shapes"
    value {
      list {
        shape {
          dim {
            size: 3
          }
          dim {
            size: 3
          }
          dim {
            size: 64
          }
          dim {
            size: 64
          }
        }
      }
    }
  }
}
node {
  name: "v0/cg/resnet_v10/conv3/conv2d/kernel"
  op: "VariableV2"
  device: "/device:GPU:0"
  attr {
    key: "_class"
    value {
      list {
        s: "loc:@v0/cg/resnet_v10/conv3/conv2d/kernel"
      }
    }
  }
  attr {
    key: "_output_shapes"
    value {
      list {
        shape {
          dim {
            size: 3
          }
          dim {
            size: 3
          }
          dim {
            size: 64
          }
          dim {
            size: 64
          }
        }
      }
    }
  }
  attr {
    key: "container"
    value {
      s: ""
    }
  }
  attr {
    key: "dtype"
    value {
      type: DT_FLOAT
    }
  }
  attr {
    key: "shape"
    value {
      shape {
        dim {
          size: 3
        }
        dim {
          size: 3
        }
        dim {
          size: 64
        }
        dim {
          size: 64
        }
      }
    }
  }
  attr {
    key: "shared_name"
    value {
      s: ""
    }
  }
}
node {
  name: "v0/cg/resnet_v10/conv3/conv2d/kernel/Assign"
  op: "Assign"
  input: "v0/cg/resnet_v10/conv3/conv2d/kernel"
  input: "v0/cg/resnet_v10/conv3/conv2d/kernel/Initializer/random_uniform"
  device: "/device:GPU:0"
  attr {
    key: "T"
    value {
      type: DT_FLOAT
    }
  }
  attr {
    key: "_class"
    value {
      list {
        s: "loc:@v0/cg/resnet_v10/conv3/conv2d/kernel"
      }
    }
  }
  attr {
    key: "_output_shapes"
    value {
      list {
        shape {
          dim {
            size: 3
          }
          dim {
            size: 3
          }
          dim {
            size: 64
          }
          dim {
            size: 64
          }
        }
      }
    }
  }
  attr {
    key: "use_locking"
    value {
      b: true
    }
  }
  attr {
    key: "validate_shape"
    value {
      b: true
    }
  }
}
node {
  name: "v0/cg/resnet_v10/conv3/conv2d/kernel/read"
  op: "Identity"
  input: "v0/cg/resnet_v10/conv3/conv2d/kernel"
  device: "/device:GPU:0"
  attr {
    key: "T"
    value {
      type: DT_FLOAT
    }
  }
  attr {
    key: "_class"
    value {
      list {
        s: "loc:@v0/cg/resnet_v10/conv3/conv2d/kernel"
      }
    }
  }
  attr {
    key: "_output_shapes"
    value {
      list {
        shape {
          dim {
            size: 3
          }
          dim {
            size: 3
          }
          dim {
            size: 64
          }
          dim {
            size: 64
          }
        }
      }
    }
  }
}
node {
  name: "v0/tower_0/cg/resnet_v10/conv3/conv2d/dilation_rate"
  op: "Const"
  device: "/device:GPU:0"
  attr {
    key: "_output_shapes"
    value {
      list {
        shape {
          dim {
            size: 2
          }
        }
      }
    }
  }
  attr {
    key: "dtype"
    value {
      type: DT_INT32
    }
  }
  attr {
    key: "value"
    value {
      tensor {
        dtype: DT_INT32
        tensor_shape {
          dim {
            size: 2
          }
        }
        tensor_content: "\001\000\000\000\001\000\000\000"
      }
    }
  }
}
node {
  name: "v0/tower_0/cg/resnet_v10/conv3/conv2d/Conv2D"
  op: "Conv2D"
  input: "v0/tower_0/cg/resnet_v10/conv2/Relu"
  input: "v0/cg/resnet_v10/conv3/conv2d/kernel/read"
  device: "/device:GPU:0"
  attr {
    key: "T"
    value {
      type: DT_FLOAT
    }
  }
  attr {
    key: "_output_shapes"
    value {
      list {
        shape {
          dim {
            size: 64
          }
          dim {
            size: 64
          }
          dim {
            size: 56
          }
          dim {
            size: 56
          }
        }
      }
    }
  }
  attr {
    key: "data_format"
    value {
      s: "NCHW"
    }
  }
  attr {
    key: "dilations"
    value {
      list {
        i: 1
        i: 1
        i: 1
        i: 1
      }
    }
  }
  attr {
    key: "padding"
    value {
      s: "SAME"
    }
  }
  attr {
    key: "strides"
    value {
      list {
        i: 1
        i: 1
        i: 1
        i: 1
      }
    }
  }
  attr {
    key: "use_cudnn_on_gpu"
    value {
      b: true
    }
  }
}
node {
  name: "v0/cg/resnet_v10/conv3/batchnorm3/gamma/Initializer/ones"
  op: "Const"
  attr {
    key: "_class"
    value {
      list {
        s: "loc:@v0/cg/resnet_v10/conv3/batchnorm3/gamma"
      }
    }
  }
  attr {
    key: "_output_shapes"
    value {
      list {
        shape {
          dim {
            size: 64
          }
        }
      }
    }
  }
  attr {
    key: "dtype"
    value {
      type: DT_FLOAT
    }
  }
  attr {
    key: "value"
    value {
      tensor {
        dtype: DT_FLOAT
        tensor_shape {
          dim {
            size: 64
          }
        }
        float_val: 1.0
      }
    }
  }
}
node {
  name: "v0/cg/resnet_v10/conv3/batchnorm3/gamma"
  op: "VariableV2"
  device: "/device:GPU:0"
  attr {
    key: "_class"
    value {
      list {
        s: "loc:@v0/cg/resnet_v10/conv3/batchnorm3/gamma"
      }
    }
  }
  attr {
    key: "_output_shapes"
    value {
      list {
        shape {
          dim {
            size: 64
          }
        }
      }
    }
  }
  attr {
    key: "container"
    value {
      s: ""
    }
  }
  attr {
    key: "dtype"
    value {
      type: DT_FLOAT
    }
  }
  attr {
    key: "shape"
    value {
      shape {
        dim {
          size: 64
        }
      }
    }
  }
  attr {
    key: "shared_name"
    value {
      s: ""
    }
  }
}
node {
  name: "v0/cg/resnet_v10/conv3/batchnorm3/gamma/Assign"
  op: "Assign"
  input: "v0/cg/resnet_v10/conv3/batchnorm3/gamma"
  input: "v0/cg/resnet_v10/conv3/batchnorm3/gamma/Initializer/ones"
  device: "/device:GPU:0"
  attr {
    key: "T"
    value {
      type: DT_FLOAT
    }
  }
  attr {
    key: "_class"
    value {
      list {
        s: "loc:@v0/cg/resnet_v10/conv3/batchnorm3/gamma"
      }
    }
  }
  attr {
    key: "_output_shapes"
    value {
      list {
        shape {
          dim {
            size: 64
          }
        }
      }
    }
  }
  attr {
    key: "use_locking"
    value {
      b: true
    }
  }
  attr {
    key: "validate_shape"
    value {
      b: true
    }
  }
}
node {
  name: "v0/cg/resnet_v10/conv3/batchnorm3/gamma/read"
  op: "Identity"
  input: "v0/cg/resnet_v10/conv3/batchnorm3/gamma"
  device: "/device:GPU:0"
  attr {
    key: "T"
    value {
      type: DT_FLOAT
    }
  }
  attr {
    key: "_class"
    value {
      list {
        s: "loc:@v0/cg/resnet_v10/conv3/batchnorm3/gamma"
      }
    }
  }
  attr {
    key: "_output_shapes"
    value {
      list {
        shape {
          dim {
            size: 64
          }
        }
      }
    }
  }
}
node {
  name: "v0/cg/resnet_v10/conv3/batchnorm3/beta/Initializer/zeros"
  op: "Const"
  attr {
    key: "_class"
    value {
      list {
        s: "loc:@v0/cg/resnet_v10/conv3/batchnorm3/beta"
      }
    }
  }
  attr {
    key: "_output_shapes"
    value {
      list {
        shape {
          dim {
            size: 64
          }
        }
      }
    }
  }
  attr {
    key: "dtype"
    value {
      type: DT_FLOAT
    }
  }
  attr {
    key: "value"
    value {
      tensor {
        dtype: DT_FLOAT
        tensor_shape {
          dim {
            size: 64
          }
        }
        float_val: 0.0
      }
    }
  }
}
node {
  name: "v0/cg/resnet_v10/conv3/batchnorm3/beta"
  op: "VariableV2"
  device: "/device:GPU:0"
  attr {
    key: "_class"
    value {
      list {
        s: "loc:@v0/cg/resnet_v10/conv3/batchnorm3/beta"
      }
    }
  }
  attr {
    key: "_output_shapes"
    value {
      list {
        shape {
          dim {
            size: 64
          }
        }
      }
    }
  }
  attr {
    key: "container"
    value {
      s: ""
    }
  }
  attr {
    key: "dtype"
    value {
      type: DT_FLOAT
    }
  }
  attr {
    key: "shape"
    value {
      shape {
        dim {
          size: 64
        }
      }
    }
  }
  attr {
    key: "shared_name"
    value {
      s: ""
    }
  }
}
node {
  name: "v0/cg/resnet_v10/conv3/batchnorm3/beta/Assign"
  op: "Assign"
  input: "v0/cg/resnet_v10/conv3/batchnorm3/beta"
  input: "v0/cg/resnet_v10/conv3/batchnorm3/beta/Initializer/zeros"
  device: "/device:GPU:0"
  attr {
    key: "T"
    value {
      type: DT_FLOAT
    }
  }
  attr {
    key: "_class"
    value {
      list {
        s: "loc:@v0/cg/resnet_v10/conv3/batchnorm3/beta"
      }
    }
  }
  attr {
    key: "_output_shapes"
    value {
      list {
        shape {
          dim {
            size: 64
          }
        }
      }
    }
  }
  attr {
    key: "use_locking"
    value {
      b: true
    }
  }
  attr {
    key: "validate_shape"
    value {
      b: true
    }
  }
}
node {
  name: "v0/cg/resnet_v10/conv3/batchnorm3/beta/read"
  op: "Identity"
  input: "v0/cg/resnet_v10/conv3/batchnorm3/beta"
  device: "/device:GPU:0"
  attr {
    key: "T"
    value {
      type: DT_FLOAT
    }
  }
  attr {
    key: "_class"
    value {
      list {
        s: "loc:@v0/cg/resnet_v10/conv3/batchnorm3/beta"
      }
    }
  }
  attr {
    key: "_output_shapes"
    value {
      list {
        shape {
          dim {
            size: 64
          }
        }
      }
    }
  }
}
node {
  name: "v0/cg/resnet_v10/conv3/batchnorm3/moving_mean/Initializer/zeros"
  op: "Const"
  attr {
    key: "_class"
    value {
      list {
        s: "loc:@v0/cg/resnet_v10/conv3/batchnorm3/moving_mean"
      }
    }
  }
  attr {
    key: "_output_shapes"
    value {
      list {
        shape {
          dim {
            size: 64
          }
        }
      }
    }
  }
  attr {
    key: "dtype"
    value {
      type: DT_FLOAT
    }
  }
  attr {
    key: "value"
    value {
      tensor {
        dtype: DT_FLOAT
        tensor_shape {
          dim {
            size: 64
          }
        }
        float_val: 0.0
      }
    }
  }
}
node {
  name: "v0/cg/resnet_v10/conv3/batchnorm3/moving_mean"
  op: "VariableV2"
  device: "/device:GPU:0"
  attr {
    key: "_class"
    value {
      list {
        s: "loc:@v0/cg/resnet_v10/conv3/batchnorm3/moving_mean"
      }
    }
  }
  attr {
    key: "_output_shapes"
    value {
      list {
        shape {
          dim {
            size: 64
          }
        }
      }
    }
  }
  attr {
    key: "container"
    value {
      s: ""
    }
  }
  attr {
    key: "dtype"
    value {
      type: DT_FLOAT
    }
  }
  attr {
    key: "shape"
    value {
      shape {
        dim {
          size: 64
        }
      }
    }
  }
  attr {
    key: "shared_name"
    value {
      s: ""
    }
  }
}
node {
  name: "v0/cg/resnet_v10/conv3/batchnorm3/moving_mean/Assign"
  op: "Assign"
  input: "v0/cg/resnet_v10/conv3/batchnorm3/moving_mean"
  input: "v0/cg/resnet_v10/conv3/batchnorm3/moving_mean/Initializer/zeros"
  device: "/device:GPU:0"
  attr {
    key: "T"
    value {
      type: DT_FLOAT
    }
  }
  attr {
    key: "_class"
    value {
      list {
        s: "loc:@v0/cg/resnet_v10/conv3/batchnorm3/moving_mean"
      }
    }
  }
  attr {
    key: "_output_shapes"
    value {
      list {
        shape {
          dim {
            size: 64
          }
        }
      }
    }
  }
  attr {
    key: "use_locking"
    value {
      b: true
    }
  }
  attr {
    key: "validate_shape"
    value {
      b: true
    }
  }
}
node {
  name: "v0/cg/resnet_v10/conv3/batchnorm3/moving_mean/read"
  op: "Identity"
  input: "v0/cg/resnet_v10/conv3/batchnorm3/moving_mean"
  device: "/device:GPU:0"
  attr {
    key: "T"
    value {
      type: DT_FLOAT
    }
  }
  attr {
    key: "_class"
    value {
      list {
        s: "loc:@v0/cg/resnet_v10/conv3/batchnorm3/moving_mean"
      }
    }
  }
  attr {
    key: "_output_shapes"
    value {
      list {
        shape {
          dim {
            size: 64
          }
        }
      }
    }
  }
}
node {
  name: "v0/cg/resnet_v10/conv3/batchnorm3/moving_variance/Initializer/ones"
  op: "Const"
  attr {
    key: "_class"
    value {
      list {
        s: "loc:@v0/cg/resnet_v10/conv3/batchnorm3/moving_variance"
      }
    }
  }
  attr {
    key: "_output_shapes"
    value {
      list {
        shape {
          dim {
            size: 64
          }
        }
      }
    }
  }
  attr {
    key: "dtype"
    value {
      type: DT_FLOAT
    }
  }
  attr {
    key: "value"
    value {
      tensor {
        dtype: DT_FLOAT
        tensor_shape {
          dim {
            size: 64
          }
        }
        float_val: 1.0
      }
    }
  }
}
node {
  name: "v0/cg/resnet_v10/conv3/batchnorm3/moving_variance"
  op: "VariableV2"
  device: "/device:GPU:0"
  attr {
    key: "_class"
    value {
      list {
        s: "loc:@v0/cg/resnet_v10/conv3/batchnorm3/moving_variance"
      }
    }
  }
  attr {
    key: "_output_shapes"
    value {
      list {
        shape {
          dim {
            size: 64
          }
        }
      }
    }
  }
  attr {
    key: "container"
    value {
      s: ""
    }
  }
  attr {
    key: "dtype"
    value {
      type: DT_FLOAT
    }
  }
  attr {
    key: "shape"
    value {
      shape {
        dim {
          size: 64
        }
      }
    }
  }
  attr {
    key: "shared_name"
    value {
      s: ""
    }
  }
}
node {
  name: "v0/cg/resnet_v10/conv3/batchnorm3/moving_variance/Assign"
  op: "Assign"
  input: "v0/cg/resnet_v10/conv3/batchnorm3/moving_variance"
  input: "v0/cg/resnet_v10/conv3/batchnorm3/moving_variance/Initializer/ones"
  device: "/device:GPU:0"
  attr {
    key: "T"
    value {
      type: DT_FLOAT
    }
  }
  attr {
    key: "_class"
    value {
      list {
        s: "loc:@v0/cg/resnet_v10/conv3/batchnorm3/moving_variance"
      }
    }
  }
  attr {
    key: "_output_shapes"
    value {
      list {
        shape {
          dim {
            size: 64
          }
        }
      }
    }
  }
  attr {
    key: "use_locking"
    value {
      b: true
    }
  }
  attr {
    key: "validate_shape"
    value {
      b: true
    }
  }
}
node {
  name: "v0/cg/resnet_v10/conv3/batchnorm3/moving_variance/read"
  op: "Identity"
  input: "v0/cg/resnet_v10/conv3/batchnorm3/moving_variance"
  device: "/device:GPU:0"
  attr {
    key: "T"
    value {
      type: DT_FLOAT
    }
  }
  attr {
    key: "_class"
    value {
      list {
        s: "loc:@v0/cg/resnet_v10/conv3/batchnorm3/moving_variance"
      }
    }
  }
  attr {
    key: "_output_shapes"
    value {
      list {
        shape {
          dim {
            size: 64
          }
        }
      }
    }
  }
}
node {
  name: "v0/tower_0/cg/resnet_v10/conv3/batchnorm3/Const"
  op: "Const"
  device: "/device:GPU:0"
  attr {
    key: "_output_shapes"
    value {
      list {
        shape {
          dim {
          }
        }
      }
    }
  }
  attr {
    key: "dtype"
    value {
      type: DT_FLOAT
    }
  }
  attr {
    key: "value"
    value {
      tensor {
        dtype: DT_FLOAT
        tensor_shape {
          dim {
          }
        }
      }
    }
  }
}
node {
  name: "v0/tower_0/cg/resnet_v10/conv3/batchnorm3/Const_1"
  op: "Const"
  device: "/device:GPU:0"
  attr {
    key: "_output_shapes"
    value {
      list {
        shape {
          dim {
          }
        }
      }
    }
  }
  attr {
    key: "dtype"
    value {
      type: DT_FLOAT
    }
  }
  attr {
    key: "value"
    value {
      tensor {
        dtype: DT_FLOAT
        tensor_shape {
          dim {
          }
        }
      }
    }
  }
}
node {
  name: "v0/tower_0/cg/resnet_v10/conv3/batchnorm3/FusedBatchNorm"
  op: "FusedBatchNorm"
  input: "v0/tower_0/cg/resnet_v10/conv3/conv2d/Conv2D"
  input: "v0/cg/resnet_v10/conv3/batchnorm3/gamma/read"
  input: "v0/cg/resnet_v10/conv3/batchnorm3/beta/read"
  input: "v0/tower_0/cg/resnet_v10/conv3/batchnorm3/Const"
  input: "v0/tower_0/cg/resnet_v10/conv3/batchnorm3/Const_1"
  device: "/device:GPU:0"
  attr {
    key: "T"
    value {
      type: DT_FLOAT
    }
  }
  attr {
    key: "_output_shapes"
    value {
      list {
        shape {
          dim {
            size: 64
          }
          dim {
            size: 64
          }
          dim {
            size: 56
          }
          dim {
            size: 56
          }
        }
        shape {
          dim {
            size: 64
          }
        }
        shape {
          dim {
            size: 64
          }
        }
        shape {
          dim {
            size: 64
          }
        }
        shape {
          dim {
            size: 64
          }
        }
      }
    }
  }
  attr {
    key: "data_format"
    value {
      s: "NCHW"
    }
  }
  attr {
    key: "epsilon"
    value {
      f: 1.00099996416e-05
    }
  }
  attr {
    key: "is_training"
    value {
      b: true
    }
  }
}
node {
  name: "v0/tower_0/cg/resnet_v10/conv3/batchnorm3/Const_2"
  op: "Const"
  device: "/device:GPU:0"
  attr {
    key: "_output_shapes"
    value {
      list {
        shape {
        }
      }
    }
  }
  attr {
    key: "dtype"
    value {
      type: DT_FLOAT
    }
  }
  attr {
    key: "value"
    value {
      tensor {
        dtype: DT_FLOAT
        tensor_shape {
        }
        float_val: 0.899999976158
      }
    }
  }
}
node {
  name: "v0/tower_0/cg/resnet_v10/conv3/batchnorm3/AssignMovingAvg/sub/x"
  op: "Const"
  device: "/device:GPU:0"
  attr {
    key: "_output_shapes"
    value {
      list {
        shape {
        }
      }
    }
  }
  attr {
    key: "dtype"
    value {
      type: DT_FLOAT
    }
  }
  attr {
    key: "value"
    value {
      tensor {
        dtype: DT_FLOAT
        tensor_shape {
        }
        float_val: 1.0
      }
    }
  }
}
node {
  name: "v0/tower_0/cg/resnet_v10/conv3/batchnorm3/AssignMovingAvg/sub"
  op: "Sub"
  input: "v0/tower_0/cg/resnet_v10/conv3/batchnorm3/AssignMovingAvg/sub/x"
  input: "v0/tower_0/cg/resnet_v10/conv3/batchnorm3/Const_2"
  device: "/device:GPU:0"
  attr {
    key: "T"
    value {
      type: DT_FLOAT
    }
  }
  attr {
    key: "_output_shapes"
    value {
      list {
        shape {
        }
      }
    }
  }
}
node {
  name: "v0/tower_0/cg/resnet_v10/conv3/batchnorm3/AssignMovingAvg/sub_1"
  op: "Sub"
  input: "v0/cg/resnet_v10/conv3/batchnorm3/moving_mean/read"
  input: "v0/tower_0/cg/resnet_v10/conv3/batchnorm3/FusedBatchNorm:1"
  device: "/device:GPU:0"
  attr {
    key: "T"
    value {
      type: DT_FLOAT
    }
  }
  attr {
    key: "_output_shapes"
    value {
      list {
        shape {
          dim {
            size: 64
          }
        }
      }
    }
  }
}
node {
  name: "v0/tower_0/cg/resnet_v10/conv3/batchnorm3/AssignMovingAvg/mul"
  op: "Mul"
  input: "v0/tower_0/cg/resnet_v10/conv3/batchnorm3/AssignMovingAvg/sub_1"
  input: "v0/tower_0/cg/resnet_v10/conv3/batchnorm3/AssignMovingAvg/sub"
  device: "/device:GPU:0"
  attr {
    key: "T"
    value {
      type: DT_FLOAT
    }
  }
  attr {
    key: "_output_shapes"
    value {
      list {
        shape {
          dim {
            size: 64
          }
        }
      }
    }
  }
}
node {
  name: "v0/tower_0/cg/resnet_v10/conv3/batchnorm3/AssignMovingAvg"
  op: "AssignSub"
  input: "v0/cg/resnet_v10/conv3/batchnorm3/moving_mean"
  input: "v0/tower_0/cg/resnet_v10/conv3/batchnorm3/AssignMovingAvg/mul"
  device: "/device:GPU:0"
  attr {
    key: "T"
    value {
      type: DT_FLOAT
    }
  }
  attr {
    key: "_class"
    value {
      list {
        s: "loc:@v0/cg/resnet_v10/conv3/batchnorm3/moving_mean"
      }
    }
  }
  attr {
    key: "_output_shapes"
    value {
      list {
        shape {
          dim {
            size: 64
          }
        }
      }
    }
  }
  attr {
    key: "use_locking"
    value {
      b: false
    }
  }
}
node {
  name: "v0/tower_0/cg/resnet_v10/conv3/batchnorm3/AssignMovingAvg_1/sub/x"
  op: "Const"
  device: "/device:GPU:0"
  attr {
    key: "_output_shapes"
    value {
      list {
        shape {
        }
      }
    }
  }
  attr {
    key: "dtype"
    value {
      type: DT_FLOAT
    }
  }
  attr {
    key: "value"
    value {
      tensor {
        dtype: DT_FLOAT
        tensor_shape {
        }
        float_val: 1.0
      }
    }
  }
}
node {
  name: "v0/tower_0/cg/resnet_v10/conv3/batchnorm3/AssignMovingAvg_1/sub"
  op: "Sub"
  input: "v0/tower_0/cg/resnet_v10/conv3/batchnorm3/AssignMovingAvg_1/sub/x"
  input: "v0/tower_0/cg/resnet_v10/conv3/batchnorm3/Const_2"
  device: "/device:GPU:0"
  attr {
    key: "T"
    value {
      type: DT_FLOAT
    }
  }
  attr {
    key: "_output_shapes"
    value {
      list {
        shape {
        }
      }
    }
  }
}
node {
  name: "v0/tower_0/cg/resnet_v10/conv3/batchnorm3/AssignMovingAvg_1/sub_1"
  op: "Sub"
  input: "v0/cg/resnet_v10/conv3/batchnorm3/moving_variance/read"
  input: "v0/tower_0/cg/resnet_v10/conv3/batchnorm3/FusedBatchNorm:2"
  device: "/device:GPU:0"
  attr {
    key: "T"
    value {
      type: DT_FLOAT
    }
  }
  attr {
    key: "_output_shapes"
    value {
      list {
        shape {
          dim {
            size: 64
          }
        }
      }
    }
  }
}
node {
  name: "v0/tower_0/cg/resnet_v10/conv3/batchnorm3/AssignMovingAvg_1/mul"
  op: "Mul"
  input: "v0/tower_0/cg/resnet_v10/conv3/batchnorm3/AssignMovingAvg_1/sub_1"
  input: "v0/tower_0/cg/resnet_v10/conv3/batchnorm3/AssignMovingAvg_1/sub"
  device: "/device:GPU:0"
  attr {
    key: "T"
    value {
      type: DT_FLOAT
    }
  }
  attr {
    key: "_output_shapes"
    value {
      list {
        shape {
          dim {
            size: 64
          }
        }
      }
    }
  }
}
node {
  name: "v0/tower_0/cg/resnet_v10/conv3/batchnorm3/AssignMovingAvg_1"
  op: "AssignSub"
  input: "v0/cg/resnet_v10/conv3/batchnorm3/moving_variance"
  input: "v0/tower_0/cg/resnet_v10/conv3/batchnorm3/AssignMovingAvg_1/mul"
  device: "/device:GPU:0"
  attr {
    key: "T"
    value {
      type: DT_FLOAT
    }
  }
  attr {
    key: "_class"
    value {
      list {
        s: "loc:@v0/cg/resnet_v10/conv3/batchnorm3/moving_variance"
      }
    }
  }
  attr {
    key: "_output_shapes"
    value {
      list {
        shape {
          dim {
            size: 64
          }
        }
      }
    }
  }
  attr {
    key: "use_locking"
    value {
      b: false
    }
  }
}
node {
  name: "v0/tower_0/cg/resnet_v10/conv3/Relu"
  op: "Relu"
  input: "v0/tower_0/cg/resnet_v10/conv3/batchnorm3/FusedBatchNorm"
  device: "/device:GPU:0"
  attr {
    key: "T"
    value {
      type: DT_FLOAT
    }
  }
  attr {
    key: "_output_shapes"
    value {
      list {
        shape {
          dim {
            size: 64
          }
          dim {
            size: 64
          }
          dim {
            size: 56
          }
          dim {
            size: 56
          }
        }
      }
    }
  }
}
node {
  name: "v0/cg/resnet_v10/conv4/conv2d/kernel/Initializer/random_uniform/shape"
  op: "Const"
  attr {
    key: "_class"
    value {
      list {
        s: "loc:@v0/cg/resnet_v10/conv4/conv2d/kernel"
      }
    }
  }
  attr {
    key: "_output_shapes"
    value {
      list {
        shape {
          dim {
            size: 4
          }
        }
      }
    }
  }
  attr {
    key: "dtype"
    value {
      type: DT_INT32
    }
  }
  attr {
    key: "value"
    value {
      tensor {
        dtype: DT_INT32
        tensor_shape {
          dim {
            size: 4
          }
        }
        tensor_content: "\001\000\000\000\001\000\000\000@\000\000\000\000\001\000\000"
      }
    }
  }
}
node {
  name: "v0/cg/resnet_v10/conv4/conv2d/kernel/Initializer/random_uniform/min"
  op: "Const"
  attr {
    key: "_class"
    value {
      list {
        s: "loc:@v0/cg/resnet_v10/conv4/conv2d/kernel"
      }
    }
  }
  attr {
    key: "_output_shapes"
    value {
      list {
        shape {
        }
      }
    }
  }
  attr {
    key: "dtype"
    value {
      type: DT_FLOAT
    }
  }
  attr {
    key: "value"
    value {
      tensor {
        dtype: DT_FLOAT
        tensor_shape {
        }
        float_val: -0.136930644512
      }
    }
  }
}
node {
  name: "v0/cg/resnet_v10/conv4/conv2d/kernel/Initializer/random_uniform/max"
  op: "Const"
  attr {
    key: "_class"
    value {
      list {
        s: "loc:@v0/cg/resnet_v10/conv4/conv2d/kernel"
      }
    }
  }
  attr {
    key: "_output_shapes"
    value {
      list {
        shape {
        }
      }
    }
  }
  attr {
    key: "dtype"
    value {
      type: DT_FLOAT
    }
  }
  attr {
    key: "value"
    value {
      tensor {
        dtype: DT_FLOAT
        tensor_shape {
        }
        float_val: 0.136930644512
      }
    }
  }
}
node {
  name: "v0/cg/resnet_v10/conv4/conv2d/kernel/Initializer/random_uniform/RandomUniform"
  op: "RandomUniform"
  input: "v0/cg/resnet_v10/conv4/conv2d/kernel/Initializer/random_uniform/shape"
  attr {
    key: "T"
    value {
      type: DT_INT32
    }
  }
  attr {
    key: "_class"
    value {
      list {
        s: "loc:@v0/cg/resnet_v10/conv4/conv2d/kernel"
      }
    }
  }
  attr {
    key: "_output_shapes"
    value {
      list {
        shape {
          dim {
            size: 1
          }
          dim {
            size: 1
          }
          dim {
            size: 64
          }
          dim {
            size: 256
          }
        }
      }
    }
  }
  attr {
    key: "dtype"
    value {
      type: DT_FLOAT
    }
  }
  attr {
    key: "seed"
    value {
      i: 1234
    }
  }
  attr {
    key: "seed2"
    value {
      i: 214
    }
  }
}
node {
  name: "v0/cg/resnet_v10/conv4/conv2d/kernel/Initializer/random_uniform/sub"
  op: "Sub"
  input: "v0/cg/resnet_v10/conv4/conv2d/kernel/Initializer/random_uniform/max"
  input: "v0/cg/resnet_v10/conv4/conv2d/kernel/Initializer/random_uniform/min"
  attr {
    key: "T"
    value {
      type: DT_FLOAT
    }
  }
  attr {
    key: "_class"
    value {
      list {
        s: "loc:@v0/cg/resnet_v10/conv4/conv2d/kernel"
      }
    }
  }
  attr {
    key: "_output_shapes"
    value {
      list {
        shape {
        }
      }
    }
  }
}
node {
  name: "v0/cg/resnet_v10/conv4/conv2d/kernel/Initializer/random_uniform/mul"
  op: "Mul"
  input: "v0/cg/resnet_v10/conv4/conv2d/kernel/Initializer/random_uniform/RandomUniform"
  input: "v0/cg/resnet_v10/conv4/conv2d/kernel/Initializer/random_uniform/sub"
  attr {
    key: "T"
    value {
      type: DT_FLOAT
    }
  }
  attr {
    key: "_class"
    value {
      list {
        s: "loc:@v0/cg/resnet_v10/conv4/conv2d/kernel"
      }
    }
  }
  attr {
    key: "_output_shapes"
    value {
      list {
        shape {
          dim {
            size: 1
          }
          dim {
            size: 1
          }
          dim {
            size: 64
          }
          dim {
            size: 256
          }
        }
      }
    }
  }
}
node {
  name: "v0/cg/resnet_v10/conv4/conv2d/kernel/Initializer/random_uniform"
  op: "Add"
  input: "v0/cg/resnet_v10/conv4/conv2d/kernel/Initializer/random_uniform/mul"
  input: "v0/cg/resnet_v10/conv4/conv2d/kernel/Initializer/random_uniform/min"
  attr {
    key: "T"
    value {
      type: DT_FLOAT
    }
  }
  attr {
    key: "_class"
    value {
      list {
        s: "loc:@v0/cg/resnet_v10/conv4/conv2d/kernel"
      }
    }
  }
  attr {
    key: "_output_shapes"
    value {
      list {
        shape {
          dim {
            size: 1
          }
          dim {
            size: 1
          }
          dim {
            size: 64
          }
          dim {
            size: 256
          }
        }
      }
    }
  }
}
node {
  name: "v0/cg/resnet_v10/conv4/conv2d/kernel"
  op: "VariableV2"
  device: "/device:GPU:0"
  attr {
    key: "_class"
    value {
      list {
        s: "loc:@v0/cg/resnet_v10/conv4/conv2d/kernel"
      }
    }
  }
  attr {
    key: "_output_shapes"
    value {
      list {
        shape {
          dim {
            size: 1
          }
          dim {
            size: 1
          }
          dim {
            size: 64
          }
          dim {
            size: 256
          }
        }
      }
    }
  }
  attr {
    key: "container"
    value {
      s: ""
    }
  }
  attr {
    key: "dtype"
    value {
      type: DT_FLOAT
    }
  }
  attr {
    key: "shape"
    value {
      shape {
        dim {
          size: 1
        }
        dim {
          size: 1
        }
        dim {
          size: 64
        }
        dim {
          size: 256
        }
      }
    }
  }
  attr {
    key: "shared_name"
    value {
      s: ""
    }
  }
}
node {
  name: "v0/cg/resnet_v10/conv4/conv2d/kernel/Assign"
  op: "Assign"
  input: "v0/cg/resnet_v10/conv4/conv2d/kernel"
  input: "v0/cg/resnet_v10/conv4/conv2d/kernel/Initializer/random_uniform"
  device: "/device:GPU:0"
  attr {
    key: "T"
    value {
      type: DT_FLOAT
    }
  }
  attr {
    key: "_class"
    value {
      list {
        s: "loc:@v0/cg/resnet_v10/conv4/conv2d/kernel"
      }
    }
  }
  attr {
    key: "_output_shapes"
    value {
      list {
        shape {
          dim {
            size: 1
          }
          dim {
            size: 1
          }
          dim {
            size: 64
          }
          dim {
            size: 256
          }
        }
      }
    }
  }
  attr {
    key: "use_locking"
    value {
      b: true
    }
  }
  attr {
    key: "validate_shape"
    value {
      b: true
    }
  }
}
node {
  name: "v0/cg/resnet_v10/conv4/conv2d/kernel/read"
  op: "Identity"
  input: "v0/cg/resnet_v10/conv4/conv2d/kernel"
  device: "/device:GPU:0"
  attr {
    key: "T"
    value {
      type: DT_FLOAT
    }
  }
  attr {
    key: "_class"
    value {
      list {
        s: "loc:@v0/cg/resnet_v10/conv4/conv2d/kernel"
      }
    }
  }
  attr {
    key: "_output_shapes"
    value {
      list {
        shape {
          dim {
            size: 1
          }
          dim {
            size: 1
          }
          dim {
            size: 64
          }
          dim {
            size: 256
          }
        }
      }
    }
  }
}
node {
  name: "v0/tower_0/cg/resnet_v10/conv4/conv2d/dilation_rate"
  op: "Const"
  device: "/device:GPU:0"
  attr {
    key: "_output_shapes"
    value {
      list {
        shape {
          dim {
            size: 2
          }
        }
      }
    }
  }
  attr {
    key: "dtype"
    value {
      type: DT_INT32
    }
  }
  attr {
    key: "value"
    value {
      tensor {
        dtype: DT_INT32
        tensor_shape {
          dim {
            size: 2
          }
        }
        tensor_content: "\001\000\000\000\001\000\000\000"
      }
    }
  }
}
node {
  name: "v0/tower_0/cg/resnet_v10/conv4/conv2d/Conv2D"
  op: "Conv2D"
  input: "v0/tower_0/cg/resnet_v10/conv3/Relu"
  input: "v0/cg/resnet_v10/conv4/conv2d/kernel/read"
  device: "/device:GPU:0"
  attr {
    key: "T"
    value {
      type: DT_FLOAT
    }
  }
  attr {
    key: "_output_shapes"
    value {
      list {
        shape {
          dim {
            size: 64
          }
          dim {
            size: 256
          }
          dim {
            size: 56
          }
          dim {
            size: 56
          }
        }
      }
    }
  }
  attr {
    key: "data_format"
    value {
      s: "NCHW"
    }
  }
  attr {
    key: "dilations"
    value {
      list {
        i: 1
        i: 1
        i: 1
        i: 1
      }
    }
  }
  attr {
    key: "padding"
    value {
      s: "SAME"
    }
  }
  attr {
    key: "strides"
    value {
      list {
        i: 1
        i: 1
        i: 1
        i: 1
      }
    }
  }
  attr {
    key: "use_cudnn_on_gpu"
    value {
      b: true
    }
  }
}
node {
  name: "v0/cg/resnet_v10/conv4/batchnorm4/gamma/Initializer/ones"
  op: "Const"
  attr {
    key: "_class"
    value {
      list {
        s: "loc:@v0/cg/resnet_v10/conv4/batchnorm4/gamma"
      }
    }
  }
  attr {
    key: "_output_shapes"
    value {
      list {
        shape {
          dim {
            size: 256
          }
        }
      }
    }
  }
  attr {
    key: "dtype"
    value {
      type: DT_FLOAT
    }
  }
  attr {
    key: "value"
    value {
      tensor {
        dtype: DT_FLOAT
        tensor_shape {
          dim {
            size: 256
          }
        }
        float_val: 1.0
      }
    }
  }
}
node {
  name: "v0/cg/resnet_v10/conv4/batchnorm4/gamma"
  op: "VariableV2"
  device: "/device:GPU:0"
  attr {
    key: "_class"
    value {
      list {
        s: "loc:@v0/cg/resnet_v10/conv4/batchnorm4/gamma"
      }
    }
  }
  attr {
    key: "_output_shapes"
    value {
      list {
        shape {
          dim {
            size: 256
          }
        }
      }
    }
  }
  attr {
    key: "container"
    value {
      s: ""
    }
  }
  attr {
    key: "dtype"
    value {
      type: DT_FLOAT
    }
  }
  attr {
    key: "shape"
    value {
      shape {
        dim {
          size: 256
        }
      }
    }
  }
  attr {
    key: "shared_name"
    value {
      s: ""
    }
  }
}
node {
  name: "v0/cg/resnet_v10/conv4/batchnorm4/gamma/Assign"
  op: "Assign"
  input: "v0/cg/resnet_v10/conv4/batchnorm4/gamma"
  input: "v0/cg/resnet_v10/conv4/batchnorm4/gamma/Initializer/ones"
  device: "/device:GPU:0"
  attr {
    key: "T"
    value {
      type: DT_FLOAT
    }
  }
  attr {
    key: "_class"
    value {
      list {
        s: "loc:@v0/cg/resnet_v10/conv4/batchnorm4/gamma"
      }
    }
  }
  attr {
    key: "_output_shapes"
    value {
      list {
        shape {
          dim {
            size: 256
          }
        }
      }
    }
  }
  attr {
    key: "use_locking"
    value {
      b: true
    }
  }
  attr {
    key: "validate_shape"
    value {
      b: true
    }
  }
}
node {
  name: "v0/cg/resnet_v10/conv4/batchnorm4/gamma/read"
  op: "Identity"
  input: "v0/cg/resnet_v10/conv4/batchnorm4/gamma"
  device: "/device:GPU:0"
  attr {
    key: "T"
    value {
      type: DT_FLOAT
    }
  }
  attr {
    key: "_class"
    value {
      list {
        s: "loc:@v0/cg/resnet_v10/conv4/batchnorm4/gamma"
      }
    }
  }
  attr {
    key: "_output_shapes"
    value {
      list {
        shape {
          dim {
            size: 256
          }
        }
      }
    }
  }
}
node {
  name: "v0/cg/resnet_v10/conv4/batchnorm4/beta/Initializer/zeros"
  op: "Const"
  attr {
    key: "_class"
    value {
      list {
        s: "loc:@v0/cg/resnet_v10/conv4/batchnorm4/beta"
      }
    }
  }
  attr {
    key: "_output_shapes"
    value {
      list {
        shape {
          dim {
            size: 256
          }
        }
      }
    }
  }
  attr {
    key: "dtype"
    value {
      type: DT_FLOAT
    }
  }
  attr {
    key: "value"
    value {
      tensor {
        dtype: DT_FLOAT
        tensor_shape {
          dim {
            size: 256
          }
        }
        float_val: 0.0
      }
    }
  }
}
node {
  name: "v0/cg/resnet_v10/conv4/batchnorm4/beta"
  op: "VariableV2"
  device: "/device:GPU:0"
  attr {
    key: "_class"
    value {
      list {
        s: "loc:@v0/cg/resnet_v10/conv4/batchnorm4/beta"
      }
    }
  }
  attr {
    key: "_output_shapes"
    value {
      list {
        shape {
          dim {
            size: 256
          }
        }
      }
    }
  }
  attr {
    key: "container"
    value {
      s: ""
    }
  }
  attr {
    key: "dtype"
    value {
      type: DT_FLOAT
    }
  }
  attr {
    key: "shape"
    value {
      shape {
        dim {
          size: 256
        }
      }
    }
  }
  attr {
    key: "shared_name"
    value {
      s: ""
    }
  }
}
node {
  name: "v0/cg/resnet_v10/conv4/batchnorm4/beta/Assign"
  op: "Assign"
  input: "v0/cg/resnet_v10/conv4/batchnorm4/beta"
  input: "v0/cg/resnet_v10/conv4/batchnorm4/beta/Initializer/zeros"
  device: "/device:GPU:0"
  attr {
    key: "T"
    value {
      type: DT_FLOAT
    }
  }
  attr {
    key: "_class"
    value {
      list {
        s: "loc:@v0/cg/resnet_v10/conv4/batchnorm4/beta"
      }
    }
  }
  attr {
    key: "_output_shapes"
    value {
      list {
        shape {
          dim {
            size: 256
          }
        }
      }
    }
  }
  attr {
    key: "use_locking"
    value {
      b: true
    }
  }
  attr {
    key: "validate_shape"
    value {
      b: true
    }
  }
}
node {
  name: "v0/cg/resnet_v10/conv4/batchnorm4/beta/read"
  op: "Identity"
  input: "v0/cg/resnet_v10/conv4/batchnorm4/beta"
  device: "/device:GPU:0"
  attr {
    key: "T"
    value {
      type: DT_FLOAT
    }
  }
  attr {
    key: "_class"
    value {
      list {
        s: "loc:@v0/cg/resnet_v10/conv4/batchnorm4/beta"
      }
    }
  }
  attr {
    key: "_output_shapes"
    value {
      list {
        shape {
          dim {
            size: 256
          }
        }
      }
    }
  }
}
node {
  name: "v0/cg/resnet_v10/conv4/batchnorm4/moving_mean/Initializer/zeros"
  op: "Const"
  attr {
    key: "_class"
    value {
      list {
        s: "loc:@v0/cg/resnet_v10/conv4/batchnorm4/moving_mean"
      }
    }
  }
  attr {
    key: "_output_shapes"
    value {
      list {
        shape {
          dim {
            size: 256
          }
        }
      }
    }
  }
  attr {
    key: "dtype"
    value {
      type: DT_FLOAT
    }
  }
  attr {
    key: "value"
    value {
      tensor {
        dtype: DT_FLOAT
        tensor_shape {
          dim {
            size: 256
          }
        }
        float_val: 0.0
      }
    }
  }
}
node {
  name: "v0/cg/resnet_v10/conv4/batchnorm4/moving_mean"
  op: "VariableV2"
  device: "/device:GPU:0"
  attr {
    key: "_class"
    value {
      list {
        s: "loc:@v0/cg/resnet_v10/conv4/batchnorm4/moving_mean"
      }
    }
  }
  attr {
    key: "_output_shapes"
    value {
      list {
        shape {
          dim {
            size: 256
          }
        }
      }
    }
  }
  attr {
    key: "container"
    value {
      s: ""
    }
  }
  attr {
    key: "dtype"
    value {
      type: DT_FLOAT
    }
  }
  attr {
    key: "shape"
    value {
      shape {
        dim {
          size: 256
        }
      }
    }
  }
  attr {
    key: "shared_name"
    value {
      s: ""
    }
  }
}
node {
  name: "v0/cg/resnet_v10/conv4/batchnorm4/moving_mean/Assign"
  op: "Assign"
  input: "v0/cg/resnet_v10/conv4/batchnorm4/moving_mean"
  input: "v0/cg/resnet_v10/conv4/batchnorm4/moving_mean/Initializer/zeros"
  device: "/device:GPU:0"
  attr {
    key: "T"
    value {
      type: DT_FLOAT
    }
  }
  attr {
    key: "_class"
    value {
      list {
        s: "loc:@v0/cg/resnet_v10/conv4/batchnorm4/moving_mean"
      }
    }
  }
  attr {
    key: "_output_shapes"
    value {
      list {
        shape {
          dim {
            size: 256
          }
        }
      }
    }
  }
  attr {
    key: "use_locking"
    value {
      b: true
    }
  }
  attr {
    key: "validate_shape"
    value {
      b: true
    }
  }
}
node {
  name: "v0/cg/resnet_v10/conv4/batchnorm4/moving_mean/read"
  op: "Identity"
  input: "v0/cg/resnet_v10/conv4/batchnorm4/moving_mean"
  device: "/device:GPU:0"
  attr {
    key: "T"
    value {
      type: DT_FLOAT
    }
  }
  attr {
    key: "_class"
    value {
      list {
        s: "loc:@v0/cg/resnet_v10/conv4/batchnorm4/moving_mean"
      }
    }
  }
  attr {
    key: "_output_shapes"
    value {
      list {
        shape {
          dim {
            size: 256
          }
        }
      }
    }
  }
}
node {
  name: "v0/cg/resnet_v10/conv4/batchnorm4/moving_variance/Initializer/ones"
  op: "Const"
  attr {
    key: "_class"
    value {
      list {
        s: "loc:@v0/cg/resnet_v10/conv4/batchnorm4/moving_variance"
      }
    }
  }
  attr {
    key: "_output_shapes"
    value {
      list {
        shape {
          dim {
            size: 256
          }
        }
      }
    }
  }
  attr {
    key: "dtype"
    value {
      type: DT_FLOAT
    }
  }
  attr {
    key: "value"
    value {
      tensor {
        dtype: DT_FLOAT
        tensor_shape {
          dim {
            size: 256
          }
        }
        float_val: 1.0
      }
    }
  }
}
node {
  name: "v0/cg/resnet_v10/conv4/batchnorm4/moving_variance"
  op: "VariableV2"
  device: "/device:GPU:0"
  attr {
    key: "_class"
    value {
      list {
        s: "loc:@v0/cg/resnet_v10/conv4/batchnorm4/moving_variance"
      }
    }
  }
  attr {
    key: "_output_shapes"
    value {
      list {
        shape {
          dim {
            size: 256
          }
        }
      }
    }
  }
  attr {
    key: "container"
    value {
      s: ""
    }
  }
  attr {
    key: "dtype"
    value {
      type: DT_FLOAT
    }
  }
  attr {
    key: "shape"
    value {
      shape {
        dim {
          size: 256
        }
      }
    }
  }
  attr {
    key: "shared_name"
    value {
      s: ""
    }
  }
}
node {
  name: "v0/cg/resnet_v10/conv4/batchnorm4/moving_variance/Assign"
  op: "Assign"
  input: "v0/cg/resnet_v10/conv4/batchnorm4/moving_variance"
  input: "v0/cg/resnet_v10/conv4/batchnorm4/moving_variance/Initializer/ones"
  device: "/device:GPU:0"
  attr {
    key: "T"
    value {
      type: DT_FLOAT
    }
  }
  attr {
    key: "_class"
    value {
      list {
        s: "loc:@v0/cg/resnet_v10/conv4/batchnorm4/moving_variance"
      }
    }
  }
  attr {
    key: "_output_shapes"
    value {
      list {
        shape {
          dim {
            size: 256
          }
        }
      }
    }
  }
  attr {
    key: "use_locking"
    value {
      b: true
    }
  }
  attr {
    key: "validate_shape"
    value {
      b: true
    }
  }
}
node {
  name: "v0/cg/resnet_v10/conv4/batchnorm4/moving_variance/read"
  op: "Identity"
  input: "v0/cg/resnet_v10/conv4/batchnorm4/moving_variance"
  device: "/device:GPU:0"
  attr {
    key: "T"
    value {
      type: DT_FLOAT
    }
  }
  attr {
    key: "_class"
    value {
      list {
        s: "loc:@v0/cg/resnet_v10/conv4/batchnorm4/moving_variance"
      }
    }
  }
  attr {
    key: "_output_shapes"
    value {
      list {
        shape {
          dim {
            size: 256
          }
        }
      }
    }
  }
}
node {
  name: "v0/tower_0/cg/resnet_v10/conv4/batchnorm4/Const"
  op: "Const"
  device: "/device:GPU:0"
  attr {
    key: "_output_shapes"
    value {
      list {
        shape {
          dim {
          }
        }
      }
    }
  }
  attr {
    key: "dtype"
    value {
      type: DT_FLOAT
    }
  }
  attr {
    key: "value"
    value {
      tensor {
        dtype: DT_FLOAT
        tensor_shape {
          dim {
          }
        }
      }
    }
  }
}
node {
  name: "v0/tower_0/cg/resnet_v10/conv4/batchnorm4/Const_1"
  op: "Const"
  device: "/device:GPU:0"
  attr {
    key: "_output_shapes"
    value {
      list {
        shape {
          dim {
          }
        }
      }
    }
  }
  attr {
    key: "dtype"
    value {
      type: DT_FLOAT
    }
  }
  attr {
    key: "value"
    value {
      tensor {
        dtype: DT_FLOAT
        tensor_shape {
          dim {
          }
        }
      }
    }
  }
}
node {
  name: "v0/tower_0/cg/resnet_v10/conv4/batchnorm4/FusedBatchNorm"
  op: "FusedBatchNorm"
  input: "v0/tower_0/cg/resnet_v10/conv4/conv2d/Conv2D"
  input: "v0/cg/resnet_v10/conv4/batchnorm4/gamma/read"
  input: "v0/cg/resnet_v10/conv4/batchnorm4/beta/read"
  input: "v0/tower_0/cg/resnet_v10/conv4/batchnorm4/Const"
  input: "v0/tower_0/cg/resnet_v10/conv4/batchnorm4/Const_1"
  device: "/device:GPU:0"
  attr {
    key: "T"
    value {
      type: DT_FLOAT
    }
  }
  attr {
    key: "_output_shapes"
    value {
      list {
        shape {
          dim {
            size: 64
          }
…
        string_val: "v0/cg/resnet_v17/conv25/batchnorm25/beta/Momentum"
        string_val: "v0/cg/resnet_v17/conv26/conv2d/kernel/Momentum"
        string_val: "v0/cg/resnet_v17/conv26/batchnorm26/gamma/Momentum"
        string_val: "v0/cg/resnet_v17/conv26/batchnorm26/beta/Momentum"
        string_val: "v0/cg/resnet_v17/conv27/conv2d/kernel/Momentum"
        string_val: "v0/cg/resnet_v17/conv27/batchnorm27/gamma/Momentum"
        string_val: "v0/cg/resnet_v17/conv27/batchnorm27/beta/Momentum"
        string_val: "v0/cg/resnet_v18/conv28/conv2d/kernel/Momentum"
        string_val: "v0/cg/resnet_v18/conv28/batchnorm28/gamma/Momentum"
        string_val: "v0/cg/resnet_v18/conv28/batchnorm28/beta/Momentum"
        string_val: "v0/cg/resnet_v18/conv29/conv2d/kernel/Momentum"
        string_val: "v0/cg/resnet_v18/conv29/batchnorm29/gamma/Momentum"
        string_val: "v0/cg/resnet_v18/conv29/batchnorm29/beta/Momentum"
        string_val: "v0/cg/resnet_v18/conv30/conv2d/kernel/Momentum"
        string_val: "v0/cg/resnet_v18/conv30/batchnorm30/gamma/Momentum"
        string_val: "v0/cg/resnet_v18/conv30/batchnorm30/beta/Momentum"
        string_val: "v0/cg/resnet_v19/conv31/conv2d/kernel/Momentum"
        string_val: "v0/cg/resnet_v19/conv31/batchnorm31/gamma/Momentum"
        string_val: "v0/cg/resnet_v19/conv31/batchnorm31/beta/Momentum"
        string_val: "v0/cg/resnet_v19/conv32/conv2d/kernel/Momentum"
        string_val: "v0/cg/resnet_v19/conv32/batchnorm32/gamma/Momentum"
        string_val: "v0/cg/resnet_v19/conv32/batchnorm32/beta/Momentum"
        string_val: "v0/cg/resnet_v19/conv33/conv2d/kernel/Momentum"
        string_val: "v0/cg/resnet_v19/conv33/batchnorm33/gamma/Momentum"
        string_val: "v0/cg/resnet_v19/conv33/batchnorm33/beta/Momentum"
        string_val: "v0/cg/resnet_v110/conv34/conv2d/kernel/Momentum"
        string_val: "v0/cg/resnet_v110/conv34/batchnorm34/gamma/Momentum"
        string_val: "v0/cg/resnet_v110/conv34/batchnorm34/beta/Momentum"
        string_val: "v0/cg/resnet_v110/conv35/conv2d/kernel/Momentum"
        string_val: "v0/cg/resnet_v110/conv35/batchnorm35/gamma/Momentum"
        string_val: "v0/cg/resnet_v110/conv35/batchnorm35/beta/Momentum"
        string_val: "v0/cg/resnet_v110/conv36/conv2d/kernel/Momentum"
        string_val: "v0/cg/resnet_v110/conv36/batchnorm36/gamma/Momentum"
        string_val: "v0/cg/resnet_v110/conv36/batchnorm36/beta/Momentum"
        string_val: "v0/cg/resnet_v111/conv37/conv2d/kernel/Momentum"
        string_val: "v0/cg/resnet_v111/conv37/batchnorm37/gamma/Momentum"
        string_val: "v0/cg/resnet_v111/conv37/batchnorm37/beta/Momentum"
        string_val: "v0/cg/resnet_v111/conv38/conv2d/kernel/Momentum"
        string_val: "v0/cg/resnet_v111/conv38/batchnorm38/gamma/Momentum"
        string_val: "v0/cg/resnet_v111/conv38/batchnorm38/beta/Momentum"
        string_val: "v0/cg/resnet_v111/conv39/conv2d/kernel/Momentum"
        string_val: "v0/cg/resnet_v111/conv39/batchnorm39/gamma/Momentum"
        string_val: "v0/cg/resnet_v111/conv39/batchnorm39/beta/Momentum"
        string_val: "v0/cg/resnet_v112/conv40/conv2d/kernel/Momentum"
        string_val: "v0/cg/resnet_v112/conv40/batchnorm40/gamma/Momentum"
        string_val: "v0/cg/resnet_v112/conv40/batchnorm40/beta/Momentum"
        string_val: "v0/cg/resnet_v112/conv41/conv2d/kernel/Momentum"
        string_val: "v0/cg/resnet_v112/conv41/batchnorm41/gamma/Momentum"
        string_val: "v0/cg/resnet_v112/conv41/batchnorm41/beta/Momentum"
        string_val: "v0/cg/resnet_v112/conv42/conv2d/kernel/Momentum"
        string_val: "v0/cg/resnet_v112/conv42/batchnorm42/gamma/Momentum"
        string_val: "v0/cg/resnet_v112/conv42/batchnorm42/beta/Momentum"
        string_val: "v0/cg/resnet_v113/conv43/conv2d/kernel/Momentum"
        string_val: "v0/cg/resnet_v113/conv43/batchnorm43/gamma/Momentum"
        string_val: "v0/cg/resnet_v113/conv43/batchnorm43/beta/Momentum"
        string_val: "v0/cg/resnet_v113/conv44/conv2d/kernel/Momentum"
        string_val: "v0/cg/resnet_v113/conv44/batchnorm44/gamma/Momentum"
        string_val: "v0/cg/resnet_v113/conv44/batchnorm44/beta/Momentum"
        string_val: "v0/cg/resnet_v113/conv45/conv2d/kernel/Momentum"
        string_val: "v0/cg/resnet_v113/conv45/batchnorm45/gamma/Momentum"
        string_val: "v0/cg/resnet_v113/conv45/batchnorm45/beta/Momentum"
        string_val: "v0/cg/resnet_v113/conv46/conv2d/kernel/Momentum"
        string_val: "v0/cg/resnet_v113/conv46/batchnorm46/gamma/Momentum"
        string_val: "v0/cg/resnet_v113/conv46/batchnorm46/beta/Momentum"
        string_val: "v0/cg/resnet_v114/conv47/conv2d/kernel/Momentum"
        string_val: "v0/cg/resnet_v114/conv47/batchnorm47/gamma/Momentum"
        string_val: "v0/cg/resnet_v114/conv47/batchnorm47/beta/Momentum"
        string_val: "v0/cg/resnet_v114/conv48/conv2d/kernel/Momentum"
        string_val: "v0/cg/resnet_v114/conv48/batchnorm48/gamma/Momentum"
        string_val: "v0/cg/resnet_v114/conv48/batchnorm48/beta/Momentum"
        string_val: "v0/cg/resnet_v114/conv49/conv2d/kernel/Momentum"
        string_val: "v0/cg/resnet_v114/conv49/batchnorm49/gamma/Momentum"
        string_val: "v0/cg/resnet_v114/conv49/batchnorm49/beta/Momentum"
        string_val: "v0/cg/resnet_v115/conv50/conv2d/kernel/Momentum"
        string_val: "v0/cg/resnet_v115/conv50/batchnorm50/gamma/Momentum"
        string_val: "v0/cg/resnet_v115/conv50/batchnorm50/beta/Momentum"
        string_val: "v0/cg/resnet_v115/conv51/conv2d/kernel/Momentum"
        string_val: "v0/cg/resnet_v115/conv51/batchnorm51/gamma/Momentum"
        string_val: "v0/cg/resnet_v115/conv51/batchnorm51/beta/Momentum"
        string_val: "v0/cg/resnet_v115/conv52/conv2d/kernel/Momentum"
        string_val: "v0/cg/resnet_v115/conv52/batchnorm52/gamma/Momentum"
        string_val: "v0/cg/resnet_v115/conv52/batchnorm52/beta/Momentum"
        string_val: "v0/cg/affine0/weights/Momentum"
        string_val: "v0/cg/affine0/biases/Momentum"
        string_val: "images"
        string_val: "labels"
        string_val: "v0/tower_0/gpu_cached_images"
      }
    }
  }
}
node {
  name: "report_uninitialized_variables/boolean_mask/Shape"
  op: "Const"
  device: "/device:CPU:0"
  attr {
    key: "_output_shapes"
    value {
      list {
        shape {
          dim {
            size: 1
          }
        }
      }
    }
  }
  attr {
    key: "dtype"
    value {
      type: DT_INT32
    }
  }
  attr {
    key: "value"
    value {
      tensor {
        dtype: DT_INT32
        tensor_shape {
          dim {
            size: 1
          }
        }
        int_val: 432
      }
    }
  }
}
node {
  name: "report_uninitialized_variables/boolean_mask/strided_slice/stack"
  op: "Const"
  device: "/device:CPU:0"
  attr {
    key: "_output_shapes"
    value {
      list {
        shape {
          dim {
            size: 1
          }
        }
      }
    }
  }
  attr {
    key: "dtype"
    value {
      type: DT_INT32
    }
  }
  attr {
    key: "value"
    value {
      tensor {
        dtype: DT_INT32
        tensor_shape {
          dim {
            size: 1
          }
        }
        int_val: 0
      }
    }
  }
}
node {
  name: "report_uninitialized_variables/boolean_mask/strided_slice/stack_1"
  op: "Const"
  device: "/device:CPU:0"
  attr {
    key: "_output_shapes"
    value {
      list {
        shape {
          dim {
            size: 1
          }
        }
      }
    }
  }
  attr {
    key: "dtype"
    value {
      type: DT_INT32
    }
  }
  attr {
    key: "value"
    value {
      tensor {
        dtype: DT_INT32
        tensor_shape {
          dim {
            size: 1
          }
        }
        int_val: 1
      }
    }
  }
}
node {
  name: "report_uninitialized_variables/boolean_mask/strided_slice/stack_2"
  op: "Const"
  device: "/device:CPU:0"
  attr {
    key: "_output_shapes"
    value {
      list {
        shape {
          dim {
            size: 1
          }
        }
      }
    }
  }
  attr {
    key: "dtype"
    value {
      type: DT_INT32
    }
  }
  attr {
    key: "value"
    value {
      tensor {
        dtype: DT_INT32
        tensor_shape {
          dim {
            size: 1
          }
        }
        int_val: 1
      }
    }
  }
}
node {
  name: "report_uninitialized_variables/boolean_mask/strided_slice"
  op: "StridedSlice"
  input: "report_uninitialized_variables/boolean_mask/Shape"
  input: "report_uninitialized_variables/boolean_mask/strided_slice/stack"
  input: "report_uninitialized_variables/boolean_mask/strided_slice/stack_1"
  input: "report_uninitialized_variables/boolean_mask/strided_slice/stack_2"
  device: "/device:CPU:0"
  attr {
    key: "Index"
    value {
      type: DT_INT32
    }
  }
  attr {
    key: "T"
    value {
      type: DT_INT32
    }
  }
  attr {
    key: "_output_shapes"
    value {
      list {
        shape {
          dim {
            size: 1
          }
        }
      }
    }
  }
  attr {
    key: "begin_mask"
    value {
      i: 0
    }
  }
  attr {
    key: "ellipsis_mask"
    value {
      i: 0
    }
  }
  attr {
    key: "end_mask"
    value {
      i: 0
    }
  }
  attr {
    key: "new_axis_mask"
    value {
      i: 0
    }
  }
  attr {
    key: "shrink_axis_mask"
    value {
      i: 0
    }
  }
}
node {
  name: "report_uninitialized_variables/boolean_mask/Prod/reduction_indices"
  op: "Const"
  device: "/device:CPU:0"
  attr {
    key: "_output_shapes"
    value {
      list {
        shape {
          dim {
            size: 1
          }
        }
      }
    }
  }
  attr {
    key: "dtype"
    value {
      type: DT_INT32
    }
  }
  attr {
    key: "value"
    value {
      tensor {
        dtype: DT_INT32
        tensor_shape {
          dim {
            size: 1
          }
        }
        int_val: 0
      }
    }
  }
}
node {
  name: "report_uninitialized_variables/boolean_mask/Prod"
  op: "Prod"
  input: "report_uninitialized_variables/boolean_mask/strided_slice"
  input: "report_uninitialized_variables/boolean_mask/Prod/reduction_indices"
  device: "/device:CPU:0"
  attr {
    key: "T"
    value {
      type: DT_INT32
    }
  }
  attr {
    key: "Tidx"
    value {
      type: DT_INT32
    }
  }
  attr {
    key: "_output_shapes"
    value {
      list {
        shape {
        }
      }
    }
  }
  attr {
    key: "keep_dims"
    value {
      b: false
    }
  }
}
node {
  name: "report_uninitialized_variables/boolean_mask/Shape_1"
  op: "Const"
  device: "/device:CPU:0"
  attr {
    key: "_output_shapes"
    value {
      list {
        shape {
          dim {
            size: 1
          }
        }
      }
    }
  }
  attr {
    key: "dtype"
    value {
      type: DT_INT32
    }
  }
  attr {
    key: "value"
    value {
      tensor {
        dtype: DT_INT32
        tensor_shape {
          dim {
            size: 1
          }
        }
        int_val: 432
      }
    }
  }
}
node {
  name: "report_uninitialized_variables/boolean_mask/strided_slice_1/stack"
  op: "Const"
  device: "/device:CPU:0"
  attr {
    key: "_output_shapes"
    value {
      list {
        shape {
          dim {
            size: 1
          }
        }
      }
    }
  }
  attr {
    key: "dtype"
    value {
      type: DT_INT32
    }
  }
  attr {
    key: "value"
    value {
      tensor {
        dtype: DT_INT32
        tensor_shape {
          dim {
            size: 1
          }
        }
        int_val: 0
      }
    }
  }
}
node {
  name: "report_uninitialized_variables/boolean_mask/strided_slice_1/stack_1"
  op: "Const"
  device: "/device:CPU:0"
  attr {
    key: "_output_shapes"
    value {
      list {
        shape {
          dim {
            size: 1
          }
        }
      }
    }
  }
  attr {
    key: "dtype"
    value {
      type: DT_INT32
    }
  }
  attr {
    key: "value"
    value {
      tensor {
        dtype: DT_INT32
        tensor_shape {
          dim {
            size: 1
          }
        }
        int_val: 0
      }
    }
  }
}
node {
  name: "report_uninitialized_variables/boolean_mask/strided_slice_1/stack_2"
  op: "Const"
  device: "/device:CPU:0"
  attr {
    key: "_output_shapes"
    value {
      list {
        shape {
          dim {
            size: 1
          }
        }
      }
    }
  }
  attr {
    key: "dtype"
    value {
      type: DT_INT32
    }
  }
  attr {
    key: "value"
    value {
      tensor {
        dtype: DT_INT32
        tensor_shape {
          dim {
            size: 1
          }
        }
        int_val: 1
      }
    }
  }
}
node {
  name: "report_uninitialized_variables/boolean_mask/strided_slice_1"
  op: "StridedSlice"
  input: "report_uninitialized_variables/boolean_mask/Shape_1"
  input: "report_uninitialized_variables/boolean_mask/strided_slice_1/stack"
  input: "report_uninitialized_variables/boolean_mask/strided_slice_1/stack_1"
  input: "report_uninitialized_variables/boolean_mask/strided_slice_1/stack_2"
  device: "/device:CPU:0"
  attr {
    key: "Index"
    value {
      type: DT_INT32
    }
  }
  attr {
    key: "T"
    value {
      type: DT_INT32
    }
  }
  attr {
    key: "_output_shapes"
    value {
      list {
        shape {
          dim {
          }
        }
      }
    }
  }
  attr {
    key: "begin_mask"
    value {
      i: 1
    }
  }
  attr {
    key: "ellipsis_mask"
    value {
      i: 0
    }
  }
  attr {
    key: "end_mask"
    value {
      i: 0
    }
  }
  attr {
    key: "new_axis_mask"
    value {
      i: 0
    }
  }
  attr {
    key: "shrink_axis_mask"
    value {
      i: 0
    }
  }
}
node {
  name: "report_uninitialized_variables/boolean_mask/Shape_2"
  op: "Const"
  device: "/device:CPU:0"
  attr {
    key: "_output_shapes"
    value {
      list {
        shape {
          dim {
            size: 1
          }
        }
      }
    }
  }
  attr {
    key: "dtype"
    value {
      type: DT_INT32
    }
  }
  attr {
    key: "value"
    value {
      tensor {
        dtype: DT_INT32
        tensor_shape {
          dim {
            size: 1
          }
        }
        int_val: 432
      }
    }
  }
}
node {
  name: "report_uninitialized_variables/boolean_mask/strided_slice_2/stack"
  op: "Const"
  device: "/device:CPU:0"
  attr {
    key: "_output_shapes"
    value {
      list {
        shape {
          dim {
            size: 1
          }
        }
      }
    }
  }
  attr {
    key: "dtype"
    value {
      type: DT_INT32
    }
  }
  attr {
    key: "value"
    value {
      tensor {
        dtype: DT_INT32
        tensor_shape {
          dim {
            size: 1
          }
        }
        int_val: 1
      }
    }
  }
}
node {
  name: "report_uninitialized_variables/boolean_mask/strided_slice_2/stack_1"
  op: "Const"
  device: "/device:CPU:0"
  attr {
    key: "_output_shapes"
    value {
      list {
        shape {
          dim {
            size: 1
          }
        }
      }
    }
  }
  attr {
    key: "dtype"
    value {
      type: DT_INT32
    }
  }
  attr {
    key: "value"
    value {
      tensor {
        dtype: DT_INT32
        tensor_shape {
          dim {
            size: 1
          }
        }
        int_val: 0
      }
    }
  }
}
node {
  name: "report_uninitialized_variables/boolean_mask/strided_slice_2/stack_2"
  op: "Const"
  device: "/device:CPU:0"
  attr {
    key: "_output_shapes"
    value {
      list {
        shape {
          dim {
            size: 1
          }
        }
      }
    }
  }
  attr {
    key: "dtype"
    value {
      type: DT_INT32
    }
  }
  attr {
    key: "value"
    value {
      tensor {
        dtype: DT_INT32
        tensor_shape {
          dim {
            size: 1
          }
        }
        int_val: 1
      }
    }
  }
}
node {
  name: "report_uninitialized_variables/boolean_mask/strided_slice_2"
  op: "StridedSlice"
  input: "report_uninitialized_variables/boolean_mask/Shape_2"
  input: "report_uninitialized_variables/boolean_mask/strided_slice_2/stack"
  input: "report_uninitialized_variables/boolean_mask/strided_slice_2/stack_1"
  input: "report_uninitialized_variables/boolean_mask/strided_slice_2/stack_2"
  device: "/device:CPU:0"
  attr {
    key: "Index"
    value {
      type: DT_INT32
    }
  }
  attr {
    key: "T"
    value {
      type: DT_INT32
    }
  }
  attr {
    key: "_output_shapes"
    value {
      list {
        shape {
          dim {
          }
        }
      }
    }
  }
  attr {
    key: "begin_mask"
    value {
      i: 0
    }
  }
  attr {
    key: "ellipsis_mask"
    value {
      i: 0
    }
  }
  attr {
    key: "end_mask"
    value {
      i: 1
    }
  }
  attr {
    key: "new_axis_mask"
    value {
      i: 0
    }
  }
  attr {
    key: "shrink_axis_mask"
    value {
      i: 0
    }
  }
}
node {
  name: "report_uninitialized_variables/boolean_mask/concat/values_1"
  op: "Pack"
  input: "report_uninitialized_variables/boolean_mask/Prod"
  device: "/device:CPU:0"
  attr {
    key: "N"
    value {
      i: 1
    }
  }
  attr {
    key: "T"
    value {
      type: DT_INT32
    }
  }
  attr {
    key: "_output_shapes"
    value {
      list {
        shape {
          dim {
            size: 1
          }
        }
      }
    }
  }
  attr {
    key: "axis"
    value {
      i: 0
    }
  }
}
node {
  name: "report_uninitialized_variables/boolean_mask/concat/axis"
  op: "Const"
  device: "/device:CPU:0"
  attr {
    key: "_output_shapes"
    value {
      list {
        shape {
        }
      }
    }
  }
  attr {
    key: "dtype"
    value {
      type: DT_INT32
    }
  }
  attr {
    key: "value"
    value {
      tensor {
        dtype: DT_INT32
        tensor_shape {
        }
        int_val: 0
      }
    }
  }
}
node {
  name: "report_uninitialized_variables/boolean_mask/concat"
  op: "ConcatV2"
  input: "report_uninitialized_variables/boolean_mask/strided_slice_1"
  input: "report_uninitialized_variables/boolean_mask/concat/values_1"
  input: "report_uninitialized_variables/boolean_mask/strided_slice_2"
  input: "report_uninitialized_variables/boolean_mask/concat/axis"
  device: "/device:CPU:0"
  attr {
    key: "N"
    value {
      i: 3
    }
  }
  attr {
    key: "T"
    value {
      type: DT_INT32
    }
  }
  attr {
    key: "Tidx"
    value {
      type: DT_INT32
    }
  }
  attr {
    key: "_output_shapes"
    value {
      list {
        shape {
          dim {
            size: 1
          }
        }
      }
    }
  }
}
node {
  name: "report_uninitialized_variables/boolean_mask/Reshape"
  op: "Reshape"
  input: "report_uninitialized_variables/Const"
  input: "report_uninitialized_variables/boolean_mask/concat"
  device: "/device:CPU:0"
  attr {
    key: "T"
    value {
      type: DT_STRING
    }
  }
  attr {
    key: "Tshape"
    value {
      type: DT_INT32
    }
  }
  attr {
    key: "_output_shapes"
    value {
      list {
        shape {
          dim {
            size: 432
          }
        }
      }
    }
  }
}
node {
  name: "report_uninitialized_variables/boolean_mask/Reshape_1/shape"
  op: "Const"
  device: "/device:CPU:0"
  attr {
    key: "_output_shapes"
    value {
      list {
        shape {
          dim {
            size: 1
          }
        }
      }
    }
  }
  attr {
    key: "dtype"
    value {
      type: DT_INT32
    }
  }
  attr {
    key: "value"
    value {
      tensor {
        dtype: DT_INT32
        tensor_shape {
          dim {
            size: 1
          }
        }
        int_val: -1
      }
    }
  }
}
node {
  name: "report_uninitialized_variables/boolean_mask/Reshape_1"
  op: "Reshape"
  input: "report_uninitialized_variables/LogicalNot"
  input: "report_uninitialized_variables/boolean_mask/Reshape_1/shape"
  device: "/device:CPU:0"
  attr {
    key: "T"
    value {
      type: DT_BOOL
    }
  }
  attr {
    key: "Tshape"
    value {
      type: DT_INT32
    }
  }
  attr {
    key: "_output_shapes"
    value {
      list {
        shape {
          dim {
            size: 432
          }
        }
      }
    }
  }
}
node {
  name: "report_uninitialized_variables/boolean_mask/Where"
  op: "Where"
  input: "report_uninitialized_variables/boolean_mask/Reshape_1"
  device: "/device:CPU:0"
  attr {
    key: "T"
    value {
      type: DT_BOOL
    }
  }
  attr {
    key: "_output_shapes"
    value {
      list {
        shape {
          dim {
            size: -1
          }
          dim {
            size: 1
          }
        }
      }
    }
  }
}
node {
  name: "report_uninitialized_variables/boolean_mask/Squeeze"
  op: "Squeeze"
  input: "report_uninitialized_variables/boolean_mask/Where"
  device: "/device:CPU:0"
  attr {
    key: "T"
    value {
      type: DT_INT64
    }
  }
  attr {
    key: "_output_shapes"
    value {
      list {
        shape {
          dim {
            size: -1
          }
        }
      }
    }
  }
  attr {
    key: "squeeze_dims"
    value {
      list {
        i: 1
      }
    }
  }
}
node {
  name: "report_uninitialized_variables/boolean_mask/GatherV2/axis"
  op: "Const"
  device: "/device:CPU:0"
  attr {
    key: "_output_shapes"
    value {
      list {
        shape {
        }
      }
    }
  }
  attr {
    key: "dtype"
    value {
      type: DT_INT32
    }
  }
  attr {
    key: "value"
    value {
      tensor {
        dtype: DT_INT32
        tensor_shape {
        }
        int_val: 0
      }
    }
  }
}
node {
  name: "report_uninitialized_variables/boolean_mask/GatherV2"
  op: "GatherV2"
  input: "report_uninitialized_variables/boolean_mask/Reshape"
  input: "report_uninitialized_variables/boolean_mask/Squeeze"
  input: "report_uninitialized_variables/boolean_mask/GatherV2/axis"
  device: "/device:CPU:0"
  attr {
    key: "Taxis"
    value {
      type: DT_INT32
    }
  }
  attr {
    key: "Tindices"
    value {
      type: DT_INT64
    }
  }
  attr {
    key: "Tparams"
    value {
      type: DT_STRING
    }
  }
  attr {
    key: "_output_shapes"
    value {
      list {
        shape {
          dim {
            size: -1
          }
        }
      }
    }
  }
}
node {
  name: "init_1/NoOp"
  op: "NoOp"
  input: "^global_step/Assign"
  device: "/device:CPU:0"
}
node {
  name: "init_1/NoOp_1"
  op: "NoOp"
  input: "^v0/cg/affine0/biases/Assign"
  input: "^v0/cg/affine0/biases/Momentum/Assign"
  input: "^v0/cg/affine0/weights/Assign"
  input: "^v0/cg/affine0/weights/Momentum/Assign"
  input: "^v0/cg/conv0/batchnorm0/beta/Assign"
  input: "^v0/cg/conv0/batchnorm0/beta/Momentum/Assign"
  input: "^v0/cg/conv0/batchnorm0/gamma/Assign"
  input: "^v0/cg/conv0/batchnorm0/gamma/Momentum/Assign"
  input: "^v0/cg/conv0/batchnorm0/moving_mean/Assign"
  input: "^v0/cg/conv0/batchnorm0/moving_variance/Assign"
  input: "^v0/cg/conv0/conv2d/kernel/Assign"
  input: "^v0/cg/conv0/conv2d/kernel/Momentum/Assign"
  input: "^v0/cg/resnet_v10/conv1/batchnorm1/beta/Assign"
  input: "^v0/cg/resnet_v10/conv1/batchnorm1/beta/Momentum/Assign"
  input: "^v0/cg/resnet_v10/conv1/batchnorm1/gamma/Assign"
  input: "^v0/cg/resnet_v10/conv1/batchnorm1/gamma/Momentum/Assign"
  input: "^v0/cg/resnet_v10/conv1/batchnorm1/moving_mean/Assign"
  input: "^v0/cg/resnet_v10/conv1/batchnorm1/moving_variance/Assign"
  input: "^v0/cg/resnet_v10/conv1/conv2d/kernel/Assign"
  input: "^v0/cg/resnet_v10/conv1/conv2d/kernel/Momentum/Assign"
  input: "^v0/cg/resnet_v10/conv2/batchnorm2/beta/Assign"
  input: "^v0/cg/resnet_v10/conv2/batchnorm2/beta/Momentum/Assign"
  input: "^v0/cg/resnet_v10/conv2/batchnorm2/gamma/Assign"
  input: "^v0/cg/resnet_v10/conv2/batchnorm2/gamma/Momentum/Assign"
  input: "^v0/cg/resnet_v10/conv2/batchnorm2/moving_mean/Assign"
  input: "^v0/cg/resnet_v10/conv2/batchnorm2/moving_variance/Assign"
  input: "^v0/cg/resnet_v10/conv2/conv2d/kernel/Assign"
  input: "^v0/cg/resnet_v10/conv2/conv2d/kernel/Momentum/Assign"
  input: "^v0/cg/resnet_v10/conv3/batchnorm3/beta/Assign"
  input: "^v0/cg/resnet_v10/conv3/batchnorm3/beta/Momentum/Assign"
  input: "^v0/cg/resnet_v10/conv3/batchnorm3/gamma/Assign"
  input: "^v0/cg/resnet_v10/conv3/batchnorm3/gamma/Momentum/Assign"
  input: "^v0/cg/resnet_v10/conv3/batchnorm3/moving_mean/Assign"
  input: "^v0/cg/resnet_v10/conv3/batchnorm3/moving_variance/Assign"
  input: "^v0/cg/resnet_v10/conv3/conv2d/kernel/Assign"
  input: "^v0/cg/resnet_v10/conv3/conv2d/kernel/Momentum/Assign"
  input: "^v0/cg/resnet_v10/conv4/batchnorm4/beta/Assign"
  input: "^v0/cg/resnet_v10/conv4/batchnorm4/beta/Momentum/Assign"
  input: "^v0/cg/resnet_v10/conv4/batchnorm4/gamma/Assign"
  input: "^v0/cg/resnet_v10/conv4/batchnorm4/gamma/Momentum/Assign"
  input: "^v0/cg/resnet_v10/conv4/batchnorm4/moving_mean/Assign"
  input: "^v0/cg/resnet_v10/conv4/batchnorm4/moving_variance/Assign"
  input: "^v0/cg/resnet_v10/conv4/conv2d/kernel/Assign"
  input: "^v0/cg/resnet_v10/conv4/conv2d/kernel/Momentum/Assign"
  input: "^v0/cg/resnet_v11/conv5/batchnorm5/beta/Assign"
  input: "^v0/cg/resnet_v11/conv5/batchnorm5/beta/Momentum/Assign"
  input: "^v0/cg/resnet_v11/conv5/batchnorm5/gamma/Assign"
  input: "^v0/cg/resnet_v11/conv5/batchnorm5/gamma/Momentum/Assign"
  input: "^v0/cg/resnet_v11/conv5/batchnorm5/moving_mean/Assign"
  input: "^v0/cg/resnet_v11/conv5/batchnorm5/moving_variance/Assign"
  input: "^v0/cg/resnet_v11/conv5/conv2d/kernel/Assign"
  input: "^v0/cg/resnet_v11/conv5/conv2d/kernel/Momentum/Assign"
  input: "^v0/cg/resnet_v11/conv6/batchnorm6/beta/Assign"
  input: "^v0/cg/resnet_v11/conv6/batchnorm6/beta/Momentum/Assign"
  input: "^v0/cg/resnet_v11/conv6/batchnorm6/gamma/Assign"
  input: "^v0/cg/resnet_v11/conv6/batchnorm6/gamma/Momentum/Assign"
  input: "^v0/cg/resnet_v11/conv6/batchnorm6/moving_mean/Assign"
  input: "^v0/cg/resnet_v11/conv6/batchnorm6/moving_variance/Assign"
  input: "^v0/cg/resnet_v11/conv6/conv2d/kernel/Assign"
  input: "^v0/cg/resnet_v11/conv6/conv2d/kernel/Momentum/Assign"
  input: "^v0/cg/resnet_v11/conv7/batchnorm7/beta/Assign"
  input: "^v0/cg/resnet_v11/conv7/batchnorm7/beta/Momentum/Assign"
  input: "^v0/cg/resnet_v11/conv7/batchnorm7/gamma/Assign"
  input: "^v0/cg/resnet_v11/conv7/batchnorm7/gamma/Momentum/Assign"
  input: "^v0/cg/resnet_v11/conv7/batchnorm7/moving_mean/Assign"
  input: "^v0/cg/resnet_v11/conv7/batchnorm7/moving_variance/Assign"
  input: "^v0/cg/resnet_v11/conv7/conv2d/kernel/Assign"
  input: "^v0/cg/resnet_v11/conv7/conv2d/kernel/Momentum/Assign"
  input: "^v0/cg/resnet_v110/conv34/batchnorm34/beta/Assign"
  input: "^v0/cg/resnet_v110/conv34/batchnorm34/beta/Momentum/Assign"
  input: "^v0/cg/resnet_v110/conv34/batchnorm34/gamma/Assign"
  input: "^v0/cg/resnet_v110/conv34/batchnorm34/gamma/Momentum/Assign"
  input: "^v0/cg/resnet_v110/conv34/batchnorm34/moving_mean/Assign"
  input: "^v0/cg/resnet_v110/conv34/batchnorm34/moving_variance/Assign"
  input: "^v0/cg/resnet_v110/conv34/conv2d/kernel/Assign"
  input: "^v0/cg/resnet_v110/conv34/conv2d/kernel/Momentum/Assign"
  input: "^v0/cg/resnet_v110/conv35/batchnorm35/beta/Assign"
  input: "^v0/cg/resnet_v110/conv35/batchnorm35/beta/Momentum/Assign"
  input: "^v0/cg/resnet_v110/conv35/batchnorm35/gamma/Assign"
  input: "^v0/cg/resnet_v110/conv35/batchnorm35/gamma/Momentum/Assign"
  input: "^v0/cg/resnet_v110/conv35/batchnorm35/moving_mean/Assign"
  input: "^v0/cg/resnet_v110/conv35/batchnorm35/moving_variance/Assign"
  input: "^v0/cg/resnet_v110/conv35/conv2d/kernel/Assign"
  input: "^v0/cg/resnet_v110/conv35/conv2d/kernel/Momentum/Assign"
  input: "^v0/cg/resnet_v110/conv36/batchnorm36/beta/Assign"
  input: "^v0/cg/resnet_v110/conv36/batchnorm36/beta/Momentum/Assign"
  input: "^v0/cg/resnet_v110/conv36/batchnorm36/gamma/Assign"
  input: "^v0/cg/resnet_v110/conv36/batchnorm36/gamma/Momentum/Assign"
  input: "^v0/cg/resnet_v110/conv36/batchnorm36/moving_mean/Assign"
  input: "^v0/cg/resnet_v110/conv36/batchnorm36/moving_variance/Assign"
  input: "^v0/cg/resnet_v110/conv36/conv2d/kernel/Assign"
  input: "^v0/cg/resnet_v110/conv36/conv2d/kernel/Momentum/Assign"
  input: "^v0/cg/resnet_v111/conv37/batchnorm37/beta/Assign"
  input: "^v0/cg/resnet_v111/conv37/batchnorm37/beta/Momentum/Assign"
  input: "^v0/cg/resnet_v111/conv37/batchnorm37/gamma/Assign"
  input: "^v0/cg/resnet_v111/conv37/batchnorm37/gamma/Momentum/Assign"
  input: "^v0/cg/resnet_v111/conv37/batchnorm37/moving_mean/Assign"
  input: "^v0/cg/resnet_v111/conv37/batchnorm37/moving_variance/Assign"
  input: "^v0/cg/resnet_v111/conv37/conv2d/kernel/Assign"
  input: "^v0/cg/resnet_v111/conv37/conv2d/kernel/Momentum/Assign"
  input: "^v0/cg/resnet_v111/conv38/batchnorm38/beta/Assign"
  input: "^v0/cg/resnet_v111/conv38/batchnorm38/beta/Momentum/Assign"
  input: "^v0/cg/resnet_v111/conv38/batchnorm38/gamma/Assign"
  input: "^v0/cg/resnet_v111/conv38/batchnorm38/gamma/Momentum/Assign"
  input: "^v0/cg/resnet_v111/conv38/batchnorm38/moving_mean/Assign"
  input: "^v0/cg/resnet_v111/conv38/batchnorm38/moving_variance/Assign"
  input: "^v0/cg/resnet_v111/conv38/conv2d/kernel/Assign"
  input: "^v0/cg/resnet_v111/conv38/conv2d/kernel/Momentum/Assign"
  input: "^v0/cg/resnet_v111/conv39/batchnorm39/beta/Assign"
  input: "^v0/cg/resnet_v111/conv39/batchnorm39/beta/Momentum/Assign"
  input: "^v0/cg/resnet_v111/conv39/batchnorm39/gamma/Assign"
  input: "^v0/cg/resnet_v111/conv39/batchnorm39/gamma/Momentum/Assign"
  input: "^v0/cg/resnet_v111/conv39/batchnorm39/moving_mean/Assign"
  input: "^v0/cg/resnet_v111/conv39/batchnorm39/moving_variance/Assign"
  input: "^v0/cg/resnet_v111/conv39/conv2d/kernel/Assign"
  input: "^v0/cg/resnet_v111/conv39/conv2d/kernel/Momentum/Assign"
  input: "^v0/cg/resnet_v112/conv40/batchnorm40/beta/Assign"
  input: "^v0/cg/resnet_v112/conv40/batchnorm40/beta/Momentum/Assign"
  input: "^v0/cg/resnet_v112/conv40/batchnorm40/gamma/Assign"
  input: "^v0/cg/resnet_v112/conv40/batchnorm40/gamma/Momentum/Assign"
  input: "^v0/cg/resnet_v112/conv40/batchnorm40/moving_mean/Assign"
  input: "^v0/cg/resnet_v112/conv40/batchnorm40/moving_variance/Assign"
  input: "^v0/cg/resnet_v112/conv40/conv2d/kernel/Assign"
  input: "^v0/cg/resnet_v112/conv40/conv2d/kernel/Momentum/Assign"
  input: "^v0/cg/resnet_v112/conv41/batchnorm41/beta/Assign"
  input: "^v0/cg/resnet_v112/conv41/batchnorm41/beta/Momentum/Assign"
  input: "^v0/cg/resnet_v112/conv41/batchnorm41/gamma/Assign"
  input: "^v0/cg/resnet_v112/conv41/batchnorm41/gamma/Momentum/Assign"
  input: "^v0/cg/resnet_v112/conv41/batchnorm41/moving_mean/Assign"
  input: "^v0/cg/resnet_v112/conv41/batchnorm41/moving_variance/Assign"
  input: "^v0/cg/resnet_v112/conv41/conv2d/kernel/Assign"
  input: "^v0/cg/resnet_v112/conv41/conv2d/kernel/Momentum/Assign"
  input: "^v0/cg/resnet_v112/conv42/batchnorm42/beta/Assign"
  input: "^v0/cg/resnet_v112/conv42/batchnorm42/beta/Momentum/Assign"
  input: "^v0/cg/resnet_v112/conv42/batchnorm42/gamma/Assign"
  input: "^v0/cg/resnet_v112/conv42/batchnorm42/gamma/Momentum/Assign"
  input: "^v0/cg/resnet_v112/conv42/batchnorm42/moving_mean/Assign"
  input: "^v0/cg/resnet_v112/conv42/batchnorm42/moving_variance/Assign"
  input: "^v0/cg/resnet_v112/conv42/conv2d/kernel/Assign"
  input: "^v0/cg/resnet_v112/conv42/conv2d/kernel/Momentum/Assign"
  input: "^v0/cg/resnet_v113/conv43/batchnorm43/beta/Assign"
  input: "^v0/cg/resnet_v113/conv43/batchnorm43/beta/Momentum/Assign"
  input: "^v0/cg/resnet_v113/conv43/batchnorm43/gamma/Assign"
  input: "^v0/cg/resnet_v113/conv43/batchnorm43/gamma/Momentum/Assign"
  input: "^v0/cg/resnet_v113/conv43/batchnorm43/moving_mean/Assign"
  input: "^v0/cg/resnet_v113/conv43/batchnorm43/moving_variance/Assign"
  input: "^v0/cg/resnet_v113/conv43/conv2d/kernel/Assign"
  input: "^v0/cg/resnet_v113/conv43/conv2d/kernel/Momentum/Assign"
  input: "^v0/cg/resnet_v113/conv44/batchnorm44/beta/Assign"
  input: "^v0/cg/resnet_v113/conv44/batchnorm44/beta/Momentum/Assign"
  input: "^v0/cg/resnet_v113/conv44/batchnorm44/gamma/Assign"
  input: "^v0/cg/resnet_v113/conv44/batchnorm44/gamma/Momentum/Assign"
  input: "^v0/cg/resnet_v113/conv44/batchnorm44/moving_mean/Assign"
  input: "^v0/cg/resnet_v113/conv44/batchnorm44/moving_variance/Assign"
  input: "^v0/cg/resnet_v113/conv44/conv2d/kernel/Assign"
  input: "^v0/cg/resnet_v113/conv44/conv2d/kernel/Momentum/Assign"
  input: "^v0/cg/resnet_v113/conv45/batchnorm45/beta/Assign"
  input: "^v0/cg/resnet_v113/conv45/batchnorm45/beta/Momentum/Assign"
  input: "^v0/cg/resnet_v113/conv45/batchnorm45/gamma/Assign"
  input: "^v0/cg/resnet_v113/conv45/batchnorm45/gamma/Momentum/Assign"
  input: "^v0/cg/resnet_v113/conv45/batchnorm45/moving_mean/Assign"
  input: "^v0/cg/resnet_v113/conv45/batchnorm45/moving_variance/Assign"
  input: "^v0/cg/resnet_v113/conv45/conv2d/kernel/Assign"
  input: "^v0/cg/resnet_v113/conv45/conv2d/kernel/Momentum/Assign"
  input: "^v0/cg/resnet_v113/conv46/batchnorm46/beta/Assign"
  input: "^v0/cg/resnet_v113/conv46/batchnorm46/beta/Momentum/Assign"
  input: "^v0/cg/resnet_v113/conv46/batchnorm46/gamma/Assign"
  input: "^v0/cg/resnet_v113/conv46/batchnorm46/gamma/Momentum/Assign"
  input: "^v0/cg/resnet_v113/conv46/batchnorm46/moving_mean/Assign"
  input: "^v0/cg/resnet_v113/conv46/batchnorm46/moving_variance/Assign"
  input: "^v0/cg/resnet_v113/conv46/conv2d/kernel/Assign"
  input: "^v0/cg/resnet_v113/conv46/conv2d/kernel/Momentum/Assign"
  input: "^v0/cg/resnet_v114/conv47/batchnorm47/beta/Assign"
  input: "^v0/cg/resnet_v114/conv47/batchnorm47/beta/Momentum/Assign"
  input: "^v0/cg/resnet_v114/conv47/batchnorm47/gamma/Assign"
  input: "^v0/cg/resnet_v114/conv47/batchnorm47/gamma/Momentum/Assign"
  input: "^v0/cg/resnet_v114/conv47/batchnorm47/moving_mean/Assign"
  input: "^v0/cg/resnet_v114/conv47/batchnorm47/moving_variance/Assign"
  input: "^v0/cg/resnet_v114/conv47/conv2d/kernel/Assign"
  input: "^v0/cg/resnet_v114/conv47/conv2d/kernel/Momentum/Assign"
  input: "^v0/cg/resnet_v114/conv48/batchnorm48/beta/Assign"
  input: "^v0/cg/resnet_v114/conv48/batchnorm48/beta/Momentum/Assign"
  input: "^v0/cg/resnet_v114/conv48/batchnorm48/gamma/Assign"
  input: "^v0/cg/resnet_v114/conv48/batchnorm48/gamma/Momentum/Assign"
  input: "^v0/cg/resnet_v114/conv48/batchnorm48/moving_mean/Assign"
  input: "^v0/cg/resnet_v114/conv48/batchnorm48/moving_variance/Assign"
  input: "^v0/cg/resnet_v114/conv48/conv2d/kernel/Assign"
  input: "^v0/cg/resnet_v114/conv48/conv2d/kernel/Momentum/Assign"
  input: "^v0/cg/resnet_v114/conv49/batchnorm49/beta/Assign"
  input: "^v0/cg/resnet_v114/conv49/batchnorm49/beta/Momentum/Assign"
  input: "^v0/cg/resnet_v114/conv49/batchnorm49/gamma/Assign"
  input: "^v0/cg/resnet_v114/conv49/batchnorm49/gamma/Momentum/Assign"
  input: "^v0/cg/resnet_v114/conv49/batchnorm49/moving_mean/Assign"
  input: "^v0/cg/resnet_v114/conv49/batchnorm49/moving_variance/Assign"
  input: "^v0/cg/resnet_v114/conv49/conv2d/kernel/Assign"
  input: "^v0/cg/resnet_v114/conv49/conv2d/kernel/Momentum/Assign"
  input: "^v0/cg/resnet_v115/conv50/batchnorm50/beta/Assign"
  input: "^v0/cg/resnet_v115/conv50/batchnorm50/beta/Momentum/Assign"
  input: "^v0/cg/resnet_v115/conv50/batchnorm50/gamma/Assign"
  input: "^v0/cg/resnet_v115/conv50/batchnorm50/gamma/Momentum/Assign"
  input: "^v0/cg/resnet_v115/conv50/batchnorm50/moving_mean/Assign"
  input: "^v0/cg/resnet_v115/conv50/batchnorm50/moving_variance/Assign"
  input: "^v0/cg/resnet_v115/conv50/conv2d/kernel/Assign"
  input: "^v0/cg/resnet_v115/conv50/conv2d/kernel/Momentum/Assign"
  input: "^v0/cg/resnet_v115/conv51/batchnorm51/beta/Assign"
  input: "^v0/cg/resnet_v115/conv51/batchnorm51/beta/Momentum/Assign"
  input: "^v0/cg/resnet_v115/conv51/batchnorm51/gamma/Assign"
  input: "^v0/cg/resnet_v115/conv51/batchnorm51/gamma/Momentum/Assign"
  input: "^v0/cg/resnet_v115/conv51/batchnorm51/moving_mean/Assign"
  input: "^v0/cg/resnet_v115/conv51/batchnorm51/moving_variance/Assign"
  input: "^v0/cg/resnet_v115/conv51/conv2d/kernel/Assign"
  input: "^v0/cg/resnet_v115/conv51/conv2d/kernel/Momentum/Assign"
  input: "^v0/cg/resnet_v115/conv52/batchnorm52/beta/Assign"
  input: "^v0/cg/resnet_v115/conv52/batchnorm52/beta/Momentum/Assign"
  input: "^v0/cg/resnet_v115/conv52/batchnorm52/gamma/Assign"
  input: "^v0/cg/resnet_v115/conv52/batchnorm52/gamma/Momentum/Assign"
  input: "^v0/cg/resnet_v115/conv52/batchnorm52/moving_mean/Assign"
  input: "^v0/cg/resnet_v115/conv52/batchnorm52/moving_variance/Assign"
  input: "^v0/cg/resnet_v115/conv52/conv2d/kernel/Assign"
  input: "^v0/cg/resnet_v115/conv52/conv2d/kernel/Momentum/Assign"
  input: "^v0/cg/resnet_v12/conv10/batchnorm10/beta/Assign"
  input: "^v0/cg/resnet_v12/conv10/batchnorm10/beta/Momentum/Assign"
  input: "^v0/cg/resnet_v12/conv10/batchnorm10/gamma/Assign"
  input: "^v0/cg/resnet_v12/conv10/batchnorm10/gamma/Momentum/Assign"
  input: "^v0/cg/resnet_v12/conv10/batchnorm10/moving_mean/Assign"
  input: "^v0/cg/resnet_v12/conv10/batchnorm10/moving_variance/Assign"
  input: "^v0/cg/resnet_v12/conv10/conv2d/kernel/Assign"
  input: "^v0/cg/resnet_v12/conv10/conv2d/kernel/Momentum/Assign"
  input: "^v0/cg/resnet_v12/conv8/batchnorm8/beta/Assign"
  input: "^v0/cg/resnet_v12/conv8/batchnorm8/beta/Momentum/Assign"
  input: "^v0/cg/resnet_v12/conv8/batchnorm8/gamma/Assign"
  input: "^v0/cg/resnet_v12/conv8/batchnorm8/gamma/Momentum/Assign"
  input: "^v0/cg/resnet_v12/conv8/batchnorm8/moving_mean/Assign"
  input: "^v0/cg/resnet_v12/conv8/batchnorm8/moving_variance/Assign"
  input: "^v0/cg/resnet_v12/conv8/conv2d/kernel/Assign"
  input: "^v0/cg/resnet_v12/conv8/conv2d/kernel/Momentum/Assign"
  input: "^v0/cg/resnet_v12/conv9/batchnorm9/beta/Assign"
  input: "^v0/cg/resnet_v12/conv9/batchnorm9/beta/Momentum/Assign"
  input: "^v0/cg/resnet_v12/conv9/batchnorm9/gamma/Assign"
  input: "^v0/cg/resnet_v12/conv9/batchnorm9/gamma/Momentum/Assign"
  input: "^v0/cg/resnet_v12/conv9/batchnorm9/moving_mean/Assign"
  input: "^v0/cg/resnet_v12/conv9/batchnorm9/moving_variance/Assign"
  input: "^v0/cg/resnet_v12/conv9/conv2d/kernel/Assign"
  input: "^v0/cg/resnet_v12/conv9/conv2d/kernel/Momentum/Assign"
  input: "^v0/cg/resnet_v13/conv11/batchnorm11/beta/Assign"
  input: "^v0/cg/resnet_v13/conv11/batchnorm11/beta/Momentum/Assign"
  input: "^v0/cg/resnet_v13/conv11/batchnorm11/gamma/Assign"
  input: "^v0/cg/resnet_v13/conv11/batchnorm11/gamma/Momentum/Assign"
  input: "^v0/cg/resnet_v13/conv11/batchnorm11/moving_mean/Assign"
  input: "^v0/cg/resnet_v13/conv11/batchnorm11/moving_variance/Assign"
  input: "^v0/cg/resnet_v13/conv11/conv2d/kernel/Assign"
  input: "^v0/cg/resnet_v13/conv11/conv2d/kernel/Momentum/Assign"
  input: "^v0/cg/resnet_v13/conv12/batchnorm12/beta/Assign"
  input: "^v0/cg/resnet_v13/conv12/batchnorm12/beta/Momentum/Assign"
  input: "^v0/cg/resnet_v13/conv12/batchnorm12/gamma/Assign"
  input: "^v0/cg/resnet_v13/conv12/batchnorm12/gamma/Momentum/Assign"
  input: "^v0/cg/resnet_v13/conv12/batchnorm12/moving_mean/Assign"
  input: "^v0/cg/resnet_v13/conv12/batchnorm12/moving_variance/Assign"
  input: "^v0/cg/resnet_v13/conv12/conv2d/kernel/Assign"
  input: "^v0/cg/resnet_v13/conv12/conv2d/kernel/Momentum/Assign"
  input: "^v0/cg/resnet_v13/conv13/batchnorm13/beta/Assign"
  input: "^v0/cg/resnet_v13/conv13/batchnorm13/beta/Momentum/Assign"
  input: "^v0/cg/resnet_v13/conv13/batchnorm13/gamma/Assign"
  input: "^v0/cg/resnet_v13/conv13/batchnorm13/gamma/Momentum/Assign"
  input: "^v0/cg/resnet_v13/conv13/batchnorm13/moving_mean/Assign"
  input: "^v0/cg/resnet_v13/conv13/batchnorm13/moving_variance/Assign"
  input: "^v0/cg/resnet_v13/conv13/conv2d/kernel/Assign"
  input: "^v0/cg/resnet_v13/conv13/conv2d/kernel/Momentum/Assign"
  input: "^v0/cg/resnet_v13/conv14/batchnorm14/beta/Assign"
  input: "^v0/cg/resnet_v13/conv14/batchnorm14/beta/Momentum/Assign"
  input: "^v0/cg/resnet_v13/conv14/batchnorm14/gamma/Assign"
  input: "^v0/cg/resnet_v13/conv14/batchnorm14/gamma/Momentum/Assign"
  input: "^v0/cg/resnet_v13/conv14/batchnorm14/moving_mean/Assign"
  input: "^v0/cg/resnet_v13/conv14/batchnorm14/moving_variance/Assign"
  input: "^v0/cg/resnet_v13/conv14/conv2d/kernel/Assign"
  input: "^v0/cg/resnet_v13/conv14/conv2d/kernel/Momentum/Assign"
  input: "^v0/cg/resnet_v14/conv15/batchnorm15/beta/Assign"
  input: "^v0/cg/resnet_v14/conv15/batchnorm15/beta/Momentum/Assign"
  input: "^v0/cg/resnet_v14/conv15/batchnorm15/gamma/Assign"
  input: "^v0/cg/resnet_v14/conv15/batchnorm15/gamma/Momentum/Assign"
  input: "^v0/cg/resnet_v14/conv15/batchnorm15/moving_mean/Assign"
  input: "^v0/cg/resnet_v14/conv15/batchnorm15/moving_variance/Assign"
  input: "^v0/cg/resnet_v14/conv15/conv2d/kernel/Assign"
  input: "^v0/cg/resnet_v14/conv15/conv2d/kernel/Momentum/Assign"
  input: "^v0/cg/resnet_v14/conv16/batchnorm16/beta/Assign"
  input: "^v0/cg/resnet_v14/conv16/batchnorm16/beta/Momentum/Assign"
  input: "^v0/cg/resnet_v14/conv16/batchnorm16/gamma/Assign"
  input: "^v0/cg/resnet_v14/conv16/batchnorm16/gamma/Momentum/Assign"
  input: "^v0/cg/resnet_v14/conv16/batchnorm16/moving_mean/Assign"
  input: "^v0/cg/resnet_v14/conv16/batchnorm16/moving_variance/Assign"
  input: "^v0/cg/resnet_v14/conv16/conv2d/kernel/Assign"
  input: "^v0/cg/resnet_v14/conv16/conv2d/kernel/Momentum/Assign"
  input: "^v0/cg/resnet_v14/conv17/batchnorm17/beta/Assign"
  input: "^v0/cg/resnet_v14/conv17/batchnorm17/beta/Momentum/Assign"
  input: "^v0/cg/resnet_v14/conv17/batchnorm17/gamma/Assign"
  input: "^v0/cg/resnet_v14/conv17/batchnorm17/gamma/Momentum/Assign"
  input: "^v0/cg/resnet_v14/conv17/batchnorm17/moving_mean/Assign"
  input: "^v0/cg/resnet_v14/conv17/batchnorm17/moving_variance/Assign"
  input: "^v0/cg/resnet_v14/conv17/conv2d/kernel/Assign"
  input: "^v0/cg/resnet_v14/conv17/conv2d/kernel/Momentum/Assign"
  input: "^v0/cg/resnet_v15/conv18/batchnorm18/beta/Assign"
  input: "^v0/cg/resnet_v15/conv18/batchnorm18/beta/Momentum/Assign"
  input: "^v0/cg/resnet_v15/conv18/batchnorm18/gamma/Assign"
  input: "^v0/cg/resnet_v15/conv18/batchnorm18/gamma/Momentum/Assign"
  input: "^v0/cg/resnet_v15/conv18/batchnorm18/moving_mean/Assign"
  input: "^v0/cg/resnet_v15/conv18/batchnorm18/moving_variance/Assign"
  input: "^v0/cg/resnet_v15/conv18/conv2d/kernel/Assign"
  input: "^v0/cg/resnet_v15/conv18/conv2d/kernel/Momentum/Assign"
  input: "^v0/cg/resnet_v15/conv19/batchnorm19/beta/Assign"
  input: "^v0/cg/resnet_v15/conv19/batchnorm19/beta/Momentum/Assign"
  input: "^v0/cg/resnet_v15/conv19/batchnorm19/gamma/Assign"
  input: "^v0/cg/resnet_v15/conv19/batchnorm19/gamma/Momentum/Assign"
  input: "^v0/cg/resnet_v15/conv19/batchnorm19/moving_mean/Assign"
  input: "^v0/cg/resnet_v15/conv19/batchnorm19/moving_variance/Assign"
  input: "^v0/cg/resnet_v15/conv19/conv2d/kernel/Assign"
  input: "^v0/cg/resnet_v15/conv19/conv2d/kernel/Momentum/Assign"
  input: "^v0/cg/resnet_v15/conv20/batchnorm20/beta/Assign"
  input: "^v0/cg/resnet_v15/conv20/batchnorm20/beta/Momentum/Assign"
  input: "^v0/cg/resnet_v15/conv20/batchnorm20/gamma/Assign"
  input: "^v0/cg/resnet_v15/conv20/batchnorm20/gamma/Momentum/Assign"
  input: "^v0/cg/resnet_v15/conv20/batchnorm20/moving_mean/Assign"
  input: "^v0/cg/resnet_v15/conv20/batchnorm20/moving_variance/Assign"
  input: "^v0/cg/resnet_v15/conv20/conv2d/kernel/Assign"
  input: "^v0/cg/resnet_v15/conv20/conv2d/kernel/Momentum/Assign"
  input: "^v0/cg/resnet_v16/conv21/batchnorm21/beta/Assign"
  input: "^v0/cg/resnet_v16/conv21/batchnorm21/beta/Momentum/Assign"
  input: "^v0/cg/resnet_v16/conv21/batchnorm21/gamma/Assign"
  input: "^v0/cg/resnet_v16/conv21/batchnorm21/gamma/Momentum/Assign"
  input: "^v0/cg/resnet_v16/conv21/batchnorm21/moving_mean/Assign"
  input: "^v0/cg/resnet_v16/conv21/batchnorm21/moving_variance/Assign"
  input: "^v0/cg/resnet_v16/conv21/conv2d/kernel/Assign"
  input: "^v0/cg/resnet_v16/conv21/conv2d/kernel/Momentum/Assign"
  input: "^v0/cg/resnet_v16/conv22/batchnorm22/beta/Assign"
  input: "^v0/cg/resnet_v16/conv22/batchnorm22/beta/Momentum/Assign"
  input: "^v0/cg/resnet_v16/conv22/batchnorm22/gamma/Assign"
  input: "^v0/cg/resnet_v16/conv22/batchnorm22/gamma/Momentum/Assign"
  input: "^v0/cg/resnet_v16/conv22/batchnorm22/moving_mean/Assign"
  input: "^v0/cg/resnet_v16/conv22/batchnorm22/moving_variance/Assign"
  input: "^v0/cg/resnet_v16/conv22/conv2d/kernel/Assign"
  input: "^v0/cg/resnet_v16/conv22/conv2d/kernel/Momentum/Assign"
  input: "^v0/cg/resnet_v16/conv23/batchnorm23/beta/Assign"
  input: "^v0/cg/resnet_v16/conv23/batchnorm23/beta/Momentum/Assign"
  input: "^v0/cg/resnet_v16/conv23/batchnorm23/gamma/Assign"
  input: "^v0/cg/resnet_v16/conv23/batchnorm23/gamma/Momentum/Assign"
  input: "^v0/cg/resnet_v16/conv23/batchnorm23/moving_mean/Assign"
  input: "^v0/cg/resnet_v16/conv23/batchnorm23/moving_variance/Assign"
  input: "^v0/cg/resnet_v16/conv23/conv2d/kernel/Assign"
  input: "^v0/cg/resnet_v16/conv23/conv2d/kernel/Momentum/Assign"
  input: "^v0/cg/resnet_v17/conv24/batchnorm24/beta/Assign"
  input: "^v0/cg/resnet_v17/conv24/batchnorm24/beta/Momentum/Assign"
  input: "^v0/cg/resnet_v17/conv24/batchnorm24/gamma/Assign"
  input: "^v0/cg/resnet_v17/conv24/batchnorm24/gamma/Momentum/Assign"
  input: "^v0/cg/resnet_v17/conv24/batchnorm24/moving_mean/Assign"
  input: "^v0/cg/resnet_v17/conv24/batchnorm24/moving_variance/Assign"
  input: "^v0/cg/resnet_v17/conv24/conv2d/kernel/Assign"
  input: "^v0/cg/resnet_v17/conv24/conv2d/kernel/Momentum/Assign"
  input: "^v0/cg/resnet_v17/conv25/batchnorm25/beta/Assign"
  input: "^v0/cg/resnet_v17/conv25/batchnorm25/beta/Momentum/Assign"
  input: "^v0/cg/resnet_v17/conv25/batchnorm25/gamma/Assign"
  input: "^v0/cg/resnet_v17/conv25/batchnorm25/gamma/Momentum/Assign"
  input: "^v0/cg/resnet_v17/conv25/batchnorm25/moving_mean/Assign"
  input: "^v0/cg/resnet_v17/conv25/batchnorm25/moving_variance/Assign"
  input: "^v0/cg/resnet_v17/conv25/conv2d/kernel/Assign"
  input: "^v0/cg/resnet_v17/conv25/conv2d/kernel/Momentum/Assign"
  input: "^v0/cg/resnet_v17/conv26/batchnorm26/beta/Assign"
  input: "^v0/cg/resnet_v17/conv26/batchnorm26/beta/Momentum/Assign"
  input: "^v0/cg/resnet_v17/conv26/batchnorm26/gamma/Assign"
  input: "^v0/cg/resnet_v17/conv26/batchnorm26/gamma/Momentum/Assign"
  input: "^v0/cg/resnet_v17/conv26/batchnorm26/moving_mean/Assign"
  input: "^v0/cg/resnet_v17/conv26/batchnorm26/moving_variance/Assign"
  input: "^v0/cg/resnet_v17/conv26/conv2d/kernel/Assign"
  input: "^v0/cg/resnet_v17/conv26/conv2d/kernel/Momentum/Assign"
  input: "^v0/cg/resnet_v17/conv27/batchnorm27/beta/Assign"
  input: "^v0/cg/resnet_v17/conv27/batchnorm27/beta/Momentum/Assign"
  input: "^v0/cg/resnet_v17/conv27/batchnorm27/gamma/Assign"
  input: "^v0/cg/resnet_v17/conv27/batchnorm27/gamma/Momentum/Assign"
  input: "^v0/cg/resnet_v17/conv27/batchnorm27/moving_mean/Assign"
  input: "^v0/cg/resnet_v17/conv27/batchnorm27/moving_variance/Assign"
  input: "^v0/cg/resnet_v17/conv27/conv2d/kernel/Assign"
  input: "^v0/cg/resnet_v17/conv27/conv2d/kernel/Momentum/Assign"
  input: "^v0/cg/resnet_v18/conv28/batchnorm28/beta/Assign"
  input: "^v0/cg/resnet_v18/conv28/batchnorm28/beta/Momentum/Assign"
  input: "^v0/cg/resnet_v18/conv28/batchnorm28/gamma/Assign"
  input: "^v0/cg/resnet_v18/conv28/batchnorm28/gamma/Momentum/Assign"
  input: "^v0/cg/resnet_v18/conv28/batchnorm28/moving_mean/Assign"
  input: "^v0/cg/resnet_v18/conv28/batchnorm28/moving_variance/Assign"
  input: "^v0/cg/resnet_v18/conv28/conv2d/kernel/Assign"
  input: "^v0/cg/resnet_v18/conv28/conv2d/kernel/Momentum/Assign"
  input: "^v0/cg/resnet_v18/conv29/batchnorm29/beta/Assign"
  input: "^v0/cg/resnet_v18/conv29/batchnorm29/beta/Momentum/Assign"
  input: "^v0/cg/resnet_v18/conv29/batchnorm29/gamma/Assign"
  input: "^v0/cg/resnet_v18/conv29/batchnorm29/gamma/Momentum/Assign"
  input: "^v0/cg/resnet_v18/conv29/batchnorm29/moving_mean/Assign"
  input: "^v0/cg/resnet_v18/conv29/batchnorm29/moving_variance/Assign"
  input: "^v0/cg/resnet_v18/conv29/conv2d/kernel/Assign"
  input: "^v0/cg/resnet_v18/conv29/conv2d/kernel/Momentum/Assign"
  input: "^v0/cg/resnet_v18/conv30/batchnorm30/beta/Assign"
  input: "^v0/cg/resnet_v18/conv30/batchnorm30/beta/Momentum/Assign"
  input: "^v0/cg/resnet_v18/conv30/batchnorm30/gamma/Assign"
  input: "^v0/cg/resnet_v18/conv30/batchnorm30/gamma/Momentum/Assign"
  input: "^v0/cg/resnet_v18/conv30/batchnorm30/moving_mean/Assign"
  input: "^v0/cg/resnet_v18/conv30/batchnorm30/moving_variance/Assign"
  input: "^v0/cg/resnet_v18/conv30/conv2d/kernel/Assign"
  input: "^v0/cg/resnet_v18/conv30/conv2d/kernel/Momentum/Assign"
  input: "^v0/cg/resnet_v19/conv31/batchnorm31/beta/Assign"
  input: "^v0/cg/resnet_v19/conv31/batchnorm31/beta/Momentum/Assign"
  input: "^v0/cg/resnet_v19/conv31/batchnorm31/gamma/Assign"
  input: "^v0/cg/resnet_v19/conv31/batchnorm31/gamma/Momentum/Assign"
  input: "^v0/cg/resnet_v19/conv31/batchnorm31/moving_mean/Assign"
  input: "^v0/cg/resnet_v19/conv31/batchnorm31/moving_variance/Assign"
  input: "^v0/cg/resnet_v19/conv31/conv2d/kernel/Assign"
  input: "^v0/cg/resnet_v19/conv31/conv2d/kernel/Momentum/Assign"
  input: "^v0/cg/resnet_v19/conv32/batchnorm32/beta/Assign"
  input: "^v0/cg/resnet_v19/conv32/batchnorm32/beta/Momentum/Assign"
  input: "^v0/cg/resnet_v19/conv32/batchnorm32/gamma/Assign"
  input: "^v0/cg/resnet_v19/conv32/batchnorm32/gamma/Momentum/Assign"
  input: "^v0/cg/resnet_v19/conv32/batchnorm32/moving_mean/Assign"
  input: "^v0/cg/resnet_v19/conv32/batchnorm32/moving_variance/Assign"
  input: "^v0/cg/resnet_v19/conv32/conv2d/kernel/Assign"
  input: "^v0/cg/resnet_v19/conv32/conv2d/kernel/Momentum/Assign"
  input: "^v0/cg/resnet_v19/conv33/batchnorm33/beta/Assign"
  input: "^v0/cg/resnet_v19/conv33/batchnorm33/beta/Momentum/Assign"
  input: "^v0/cg/resnet_v19/conv33/batchnorm33/gamma/Assign"
  input: "^v0/cg/resnet_v19/conv33/batchnorm33/gamma/Momentum/Assign"
  input: "^v0/cg/resnet_v19/conv33/batchnorm33/moving_mean/Assign"
  input: "^v0/cg/resnet_v19/conv33/batchnorm33/moving_variance/Assign"
  input: "^v0/cg/resnet_v19/conv33/conv2d/kernel/Assign"
  input: "^v0/cg/resnet_v19/conv33/conv2d/kernel/Momentum/Assign"
  device: "/device:GPU:0"
}
node {
  name: "init_1"
  op: "NoOp"
  input: "^init_1/NoOp"
  input: "^init_1/NoOp_1"
}
versions {
  producer: 26
}
